models/trained_dqn_predict_daily_return_3yrs_2_finer_res.pth (torch, 879982 bytes, 15 tensors)

fc1.weight f4 [256, 25]
0.1478121 0.16901861 -0.024293417 0.104844995 -0.045085467 0.0031006956 -0.101138495 0.12022622
0.16869073 -0.21861891 0.13758375 0.0077575487 0.19560349 -0.021963723 0.1615711 -0.044249598
0.13049252 0.03785205 -0.04139061 0.055241838 -0.086469635 -0.023675354 -0.0044155247 0.13472621
-0.12500806 -0.007617751 -0.06876881 -0.2122484 -0.06578983 -0.21341938 0.23398001 -0.109936945
0.2647287 0.07760232 -0.09173505 0.18654259 0.06598899 -0.0028969767 0.11029956 -0.019551322
0.18617709 -0.06149502 0.08333773 0.22656389 0.09376527 -0.14966524 0.042134166 0.024528172
0.06751326 -0.13715911 -0.23306 -0.03249087 -0.108332165 0.104734555 0.08631257 0.064222276
0.032209355 0.016135246 0.20831512 -0.10270373 -0.019681472 -0.18213627 0.07126345 -0.17028803
0.061305147 -0.058849137 0.12526192 -0.10842697 -0.10700742 -0.100613564 0.13402167 0.11936244
0.19229504 -0.15228015 -0.22903724 -0.19219984 -0.093601 0.07805772 0.020825913 0.14683048
-0.07066345 -0.20493554 0.09325266 -0.0758404 0.14162047 -0.038730577 0.11326582 -0.0061893533
-0.047992192 -0.02368237 0.13874443 -0.06530517 0.224043 0.10213711 -0.19948544 -0.21396314
0.15597337 -0.15540285 -0.0017608352 -0.12504022 -0.1169759 0.040744778 -0.05104379 -0.15255474
-0.0021114105 -0.23512696 -0.29176292 -0.013405895 -0.19822915 -0.020637838 0.146461 0.041430973
0.036566705 -0.19805689 0.0060540196 -0.061845537 -0.03682434 -0.1761069 -0.06876756 -0.06417693
-0.042290855 -0.07824397 -0.04143179 -0.0886882 -0.19238007 -0.14834656 -0.040314805 -0.14787851
0.18620756 0.0028947531 0.19864486 0.17756216 -0.14804256 0.15191774 -0.14391454 -0.09538704
-0.18004514 -0.16828822 0.0128161125 -0.05455788 -0.005302505 -0.17940119 0.17210607 -0.19632722
0.081413046 0.08598235 0.045193754 0.23071234 0.16757736 -0.053647496 0.03608007 -0.06057438
-0.028457278 -0.20759417 0.17851926 -0.10064789 0.09638968 0.057868004 0.14903477 -0.18436003
0.19015105 0.030489057 0.026968678 -0.14359091 0.064585015 -0.10156601 -0.101551235 0.055950727
0.08207785 -0.105794944 -0.09651618 0.013521545 0.09285838 -0.089162305 -0.06413322 -0.08446071
-0.20000324 0.14699578 0.16045688 -0.21918634 -0.0065423134 0.11959896 -0.05176509 -0.10241896
0.14265195 0.14869645 0.029973295 -0.025695551 -0.04324961 0.01519732 -0.056075525 -0.058589164
0.11903647 0.16708702 0.010476151 -0.06354563 0.013633696 -0.029406076 -0.035389915 0.05452656
-0.2116549 -0.05666904 0.19857424 0.12583835 -0.07039336 -0.15586548 -0.13522236 -0.18033455
-0.08000421 0.08514181 0.13065228 0.10874399 -0.14167735 -0.024979984 -0.02150855 0.14346544
-0.017243318 -0.07844796 0.07650896 -0.15961292 -0.18934071 0.123902805 -0.05091721 -0.041138336
-0.16821116 0.16060193 0.1415856 0.06617541 -0.11449429 -0.19956395 -0.08875168 0.14984912
0.09502843 0.13362615 0.123520195 0.021274136 0.021959597 -0.16536821 -0.15643719 -0.212577
0.1482891 -0.09251123 -0.026620448 -0.12103661 -0.06771928 -0.17528428 -0.07567004 0.05730582
-0.0063486323 0.102741115 -0.06824476 -0.20893103 0.030185279 -0.12310048 -0.1417635 -0.16300455
00000000: 0e5c 173e 3713 2d3e fd02 c7bc f9b8 d63d
00000010: 8aab 38bd 0a35 4b3b b321 cfbd 2a39 f63d
00000020: 43bd 2c3e a3dd 5fbe c1e2 0c3e 0933 fe3b
00000030: 484c 483e 44ed b3bc e572 253e 113f 35bd
00000040: d59f 053e c00a 1b3d 3389 29bd 4445 623d
00000050: fe16 b1bd d1f2 c1bc 1bb0 90bb abf5 093e
00000060: 1d02 00be 549e f9bb a9d6 8cbd a557 59be
00000070: d2bc 86bd 9c8a 5abe 7598 6f3e 9f26 e1bd
00000080: 858a 873e f7ed 9e3d 96df bbbd 0505 3f3e
00000090: 3c25 873d 34db 3dbb bce4 e13d 182a a0bc
000000a0: 35a5 3e3e 34e2 7bbd f9ac aa3d 5d00 683e
000000b0: 0208 c03d d841 19be e094 2c3d 4eef c83c
000000c0: 6444 8a3d 7073 0cbe 48a7 6ebe 2615 05bd
000000d0: 41dd ddbd 127f d63d a5c4 b03d f886 833d
000000e0: f5ed 033d 102e 843c 8f50 553e 5556 d2bd
000000f0: 0a3b a1bc ee81 3abe 92f2 913d fc5f 2ebe
00000100: 1b1b 7b3d cb0b 71bd a944 003e f60e debd
00000110: b526 dbbd 7c0e cebd fa3c 093e 4c74 f43d
00000120: fee8 443e 54ef 1bbe bd88 6abe 09d0 44be
00000130: e2b1 bfbd badc 9f3d 1b9b aa3c bb5a 163e
00000140: 00b8 90bd 9fda 51be 40fb be3d 3652 9bbd
00000150: f504 113e f4a3 1ebd e9f7 e73d 0fd0 cabb
00000160: 7693 44bd 8801 c2bc 0513 0e3e b8be 85bd
00000170: 876b 653e 432d d13d e945 4cbe 2719 5bbe
00000180: 7cb7 1f3e ed21 1fbe d3cb e6ba 8b0a 00be
00000190: 1091 efbd ffe3 263d 4b13 51bd 4f37 1cbe
000001a0: 975f 0abb 1fc5 70be f361 95be 66a4 5bbc
000001b0: 95fc 4abe af10 a9bc dff9 153e 86b3 293d
000001c0: f8c6 153d 6dcf 4abe cc60 c63b bf51 7dbd
000001d0: 1ed5 16bd 5e55 34be 02d6 8cbd 326f 83bd
000001e0: 2d39 2dbd 603e a0bd 61b4 29bd 29a2 b5bd
000001f0: 48ff 44be 29e8 17be 2321 25bd 776d 17be
00000200: 32ad 3e3e e6b5 3d3b 8f69 4b3e dbd2 353e
00000210: 7898 17be 5390 1b3e 555e 13be 485a c3bd
00000220: c15d 38be bf53 2cbe acfa 513c 1578 5fbd
00000230: a3c0 adbb f2b4 37be 933c 303e 010a 49be
00000240: e2bb a63d 8417 b03d 161d 393d db3f 6c3e
00000250: 6699 2b3e 7abd 5bbd b2c8 133d d71c 78bd
00000260: 3d1f e9bc 9193 54be c1cd 363e 7b20 cebd
00000270: f467 c53d 0007 6d3d 929c 183e e0c8 3cbe
00000280: f5b6 423e 30c4 f93c 6bed dc3c 7f09 13be
00000290: 2645 843d d701 d0bd 18fa cfbd 972c 653d
000002a0: 6f18 a83d 05ab d8bd 46aa c5bd 7889 5d3c
000002b0: 892c be3d ba9a b6bd 4758 83bd bdf9 acbd
000002c0: a6cd 4cbe 1086 163e cf4e 243e 6272 60be
000002d0: e760 d6bb 4df0 f43d a207 54bd 08c1 d1bd
000002e0: 5a13 123e e243 183e 8e8a f53c 7a7f d2bc
000002f0: 8126 31bd 2efe 783c 73af 65bd 31fb 6fbd
00000300: 65c9 f33d dc18 2b3e 29a4 2b3c 3624 82bd
00000310: de5f 5f3c 03e5 f0bc 04f5 10bd 3e57 5f3d
00000320: 10bc 58be cc1d 68bd 0c57 4b3e c5db 003e
00000330: 652a 90bd 339b 1fbe bb77 0abe 9fa9 38be
00000340: 3fd9 a3bd d45e ae3d b6c9 053e 2bb5 de3d
00000350: de13 11be d3a2 ccbc b332 b0bc 9be8 123e
00000360: dc41 8dbc 53a9 a0bd bbb0 9c3d 9271 23be
00000370: 88e2 41be c1c0 fd3d 908e 50bd ac80 28bd
00000380: 8c3f 2cbe d574 243e d1fb 103e f986 873d
00000390: fb7b eabd 7e5a 4cbe 71c3 b5bd 0c72 193e
000003a0: 449e c23d 4bd5 083e 28f8 fc3d 1947 ae3c
000003b0: 9de4 b33c 4956 29be 1231 20be c9ad 59be
000003c0: 19d9 173e 8776 bdbd 2013 dabc 0be2 f7bd
000003d0: 68b0 8abd b97d 33be e5f8 9abd 82b9 6a3d
000003e0: 3008 d0bb ef69 d23d e9c3 8bbd 04f2 55be
000003f0: 1e47 f73c 1b1c fcbd 732a 11be aaea 26be

fc1.bias f4 [256]
0.05827592 -0.12624101 0.1581095 -0.12294648 -0.049185287 0.04277905 0.12889518 0.02244807
-0.04993315 0.0111547 0.06624164 -0.1922631 0.15612406 -0.1271002 0.021429343 -0.1597843
-0.029005513 -0.046934806 -0.16104254 0.08992055 -0.18739004 -0.014563047 0.044434983 -0.06043659
0.10794767 0.09743752 0.037754573 -0.013320552 0.12107791 -0.113216355 -0.17968343 0.124653734
-0.091902055 0.07773175 0.018246368 0.17978644 0.17125109 -0.051547237 0.07946249 -0.14782569
0.16124861 0.18459585 -0.0028123227 0.011778541 0.03747821 -0.096825965 0.16939233 -0.24361633
-0.07537525 0.013868402 -0.14802484 0.06746846 0.12722988 -0.09064419 0.08528846 0.036340497
0.19312723 -0.14828497 0.10193188 -0.015070734 0.21061277 -0.06557315 0.06765774 0.08958429
0.09352005 0.09160349 0.14006504 -0.06935404 -0.09666405 -0.011442324 0.2413694 0.13380383
-0.016869541 0.15080017 0.024355045 -0.0040025827 0.030088047 -0.016541895 0.048800543 -0.10083067
0.023249304 0.2089703 0.11725106 -0.13251144 0.0112510035 0.15937853 -0.07492218 0.0028795504
0.054672197 0.14244512 0.1894398 -0.25989076 -0.27299267 0.2037453 -0.025364708 0.10647252
0.16223326 -0.03721316 0.107986696 0.13600191 -0.06284862 0.22544758 0.058421724 -0.0038323419
-0.16994476 0.1823221 -0.20980063 0.120761976 -0.036835995 -0.041121423 0.03712577 0.20811012
-0.09999341 -0.11076326 0.097348005 -0.101539366 -0.07576809 0.08669788 -0.079380214 0.104209706
0.0052588754 0.17254303 0.18853654 -0.02152081 -0.06811053 0.12576562 0.051550303 -0.0036645643
0.1634255 -0.0034347312 0.049860626 -0.059289593 0.013909108 -0.06717806 -0.06351964 0.09583552
0.11930473 0.12638621 -0.06945876 0.1533533 0.16736263 0.17800587 0.012100431 -0.1334936
-0.10233076 0.01023899 -0.15263294 0.03711606 -0.11882456 -0.12747294 -0.12977096 0.08648287
0.15175045 -0.124427 -0.16147901 0.018942049 -0.08821517 -0.15504141 0.050438404 -0.16164562
0.040964253 0.102330774 0.19489932 -0.121023655 0.1671969 -0.057496354 0.20075719 0.17488456
-0.01586867 0.048528835 -0.08856306 0.10649418 -0.023999624 0.09227219 0.10962849 0.1647602
0.121965066 0.15315881 -0.20930608 -0.13067934 -0.14752102 0.11729465 0.03722356 0.09860905
0.08814329 0.036490094 0.087042704 -0.10831211 0.13905083 -0.20496076 -0.13501248 0.09049757
0.20245491 -0.11566996 0.16511987 -0.048857633 -0.17637388 0.030316632 0.07077998 -0.06664514
0.18105516 -0.09250372 -0.12946275 -0.1062939 -0.142697 0.15276994 -0.12641504 -0.08994193
-0.020812023 0.18501711 0.09560017 0.10304389 0.03580751 0.14294389 0.048968814 0.21336715
0.07198622 0.110731915 0.073043376 0.02502169 -0.16811448 0.047475368 -0.094174854 0.03843337
-0.029962493 0.17083181 -0.05873108 -0.18015523 0.09461992 0.11089363 -0.034073018 0.02346361
0.15106511 -0.048373215 -0.045820195 0.17544138 0.20470123 -0.060168125 0.15687768 0.012393172
-0.088457845 -0.0038614306 -0.21220444 0.023347788 -0.15130654 -0.14548476 -0.03626394 -0.097617745
-0.12384604 -0.09406679 -0.03350819 0.0934111 0.12043326 0.011762648 0.009271732 -0.17381805
00000000: bbb2 6e3d 5345 01be 75e7 213e 5dcb fbbd
00000010: 8376 49bd 1639 2f3d 19fd 033e 04e5 b73c
00000020: b486 4cbd 34c2 363c b2a9 873d 9ee0 44be
00000030: fcde 1f3e 8e26 02be 978c af3c 7f9e 23be
00000040: f89c edbc b63e 40bd 56e8 24be 4428 b83d
00000050: 2de3 3fbe d999 6ebc 7501 363d 5c8c 77bd
00000060: ab13 dd3d 538d c73d 8aa4 1a3d 723e 5abc
00000070: b2f7 f73d fadd e7bd effe 37be 754a ff3d
00000080: 2537 bcbd d331 9f3d 6879 953c f019 383e
00000090: 725c 2f3e 3223 53bd 3bbd a23d 9e5f 17be
000000a0: 5b1e 253e b206 3d3e f24e 38bb c8fa 403c
000000b0: c082 193d b14c c6bd 2f75 2d3e 8f76 79be
000000c0: 575e 9abd 4b38 633c d393 17be e72c 8a3d
000000d0: 8d48 023e a9a3 b9bd b7ab ae3d c6d9 143d
000000e0: 25c3 453e 04d8 17be a9c1 d03d 3deb 76bc
000000f0: e0aa 573e 374b 86bd 2490 8a3d f877 b73d
00000100: 7187 bf3d 9c9a bb3d 366d 0f3e 7e09 8ebd
00000110: cdf7 c5bd 9678 3bbc 8a29 773e df03 093e
00000120: fe31 8abc 5c6b 1a3e 3b84 c73c 1928 83bb
00000130: 357b f63c de82 87bc 14e3 473d 4f80 cebd
00000140: 5375 be3c 4ffc 553e 5321 f03d 14b1 07be
00000150: 2156 383c 2034 233e cd70 99bd d7b6 3c3b
00000160: f4ef 5f3d 22dd 113e 82fc 413e 6710 85be
00000170: b2c5 8bbe 9ca2 503e a6c9 cfbc 440e da3d
00000180: 7a20 263e d46c 18bd 2128 dd3d 1644 0b3e
00000190: c7b6 80bd bbdb 663e 9e4b 6f3d 0728 7bbb
000001a0: 0006 2ebe a5b2 3a3e fad5 56be 0e52 f73d
000001b0: 57e1 16bd f06e 28bd 3111 183d d21a 553e
000001c0: 58c9 ccbd d9d7 e2bd 645e c73d dff3 cfbd
000001d0: 4d2c 9bbd a88e b13d 1892 a2bd e66b d53d
000001e0: a552 ac3b 1faf 303e b90f 413e 694c b0bc
000001f0: 897d 8bbd b4c8 003e 6926 533d 3029 70bb
00000200: 0459 273e 3a19 61bb a83a 4c3d a5d9 72bd
00000210: 07e3 633c a794 89bd 9616 82bd 6a45 c43d
00000220: 0a56 f43d 636b 013e 6540 8ebd a608 1d3e
00000230: 1c61 2b3e 2c47 363e e340 463c 8cb2 08be
00000240: ca92 d1bd 70c1 273c cf4b 1cbe 0207 183d
00000250: 4a5a f3bd 4488 02be aee2 04be ee1d b13d
00000260: 7864 1b3e 95d3 febd c15a 25be 5b2c 9b3c
00000270: 28aa b4bd 2dc3 1ebe 8098 4e3d 6e86 25be
00000280: 22ca 273d cc92 d13d b093 473e 40db f7bd
00000290: aa35 2b3e 4c81 6bbd 4b93 4d3e f014 333e
000002a0: 03ff 81bc 2cc6 463d 8d60 b5bd 9f19 da3d
000002b0: dc9a c4bc 34f9 bc3d e784 e03d e6b6 283e
000002c0: d2c8 f93d aad5 1c3e 5554 56be ced0 05be
000002d0: c00f 17be 2d38 f03d bb77 183d 8bf3 c93d
000002e0: 7884 b43d a376 153d 7243 b23d bdd2 ddbd
000002f0: 5763 0e3e 3ce1 51be b640 0abe ca56 b93d
00000300: 5750 4f3e 5fe4 ecbd 2f15 293e f11e 48bd
00000310: 5b9b 34be 965a f83c 18f5 903d 3f7d 88bd
00000320: 8666 393e 9772 bdbd e291 04be 9eb0 d9bd
00000330: 2a1f 12be b96f 1c3e f272 01be 7933 b8bd
00000340: fa7d aabc 2075 3d3e 06ca c33d ad08 d33d
00000350: e5aa 123d e25f 123e 8693 483d eb7c 5a3e
00000360: 836d 933d 6ac7 e23d c497 953d 4afa cc3c
00000370: 3426 2cbe 8875 423d bfde c0bd 4f6c 1d3d
00000380: e773 f5bc 89ee 2e3e 0090 70bd 9d7a 38be
00000390: 17c8 c13d 331c e33d 2690 0bbd c236 c03c
000003a0: d0b0 1a3e fe22 46bd f5ad 3bbd e8a6 333e
000003b0: 339d 513e da72 76bd 8ba4 203e bb0c 4b3c
000003c0: 6329 b5bd 0e10 7dbb 1f4c 59be dc43 bf3c
000003d0: 1af0 1abe f5f9 14be 7f89 14bd d0eb c7bd
000003e0: fea2 fdbd 17a6 c0bd e23f 09bd 524e bf3d
000003f0: b7a5 f63d 1fb8 403c 76e8 173c 5cfd 31be

ln1.weight f4 [256]
0.96994084 1.0825502 0.99160784 1.0433745 0.9980392 1.028308 0.9727055 1.0258754
1.0123982 0.9763224 0.97280794 1.027316 0.98805386 1.028024 1.0076264 1.0610125
1.0025417 1.0291148 1.1027894 0.990581 1.0258182 1.0655881 1.0415885 1.0039412
0.954651 0.97869945 1.0073433 1.0068496 0.9823195 1.0187788 1.0655962 0.97429365
1.0319184 0.9738969 0.9597065 0.9462334 0.95262873 0.9733355 0.97646695 1.0970172
0.93790275 1.0072424 1.0157669 0.9416211 1.010215 0.9900752 0.9516732 1.0654482
1.0032284 0.9800421 1.0041019 1.0012242 0.9854404 0.995707 0.9611633 0.9598774
0.97889894 1.095087 0.97889507 0.99937654 0.9896944 1.0099199 1.002175 0.9887797
0.965228 0.9937485 0.9494177 1.0079795 1.0384179 1.01857 0.9940188 0.91643226
1.0471926 0.9797817 1.0118289 1.0437663 0.99187404 0.956261 1.0289425 1.0002669
0.9819498 0.9819089 0.9709235 1.0342 1.0015675 0.9716497 1.016474 1.0262452
1.0403091 0.9796386 1.0141281 1.0355588 1.14857 0.9846506 1.0220058 0.98679805
0.96453875 1.0203149 0.97538114 0.9725659 1.0036865 0.9835896 0.98298097 1.0238096
1.0276067 0.98507774 1.0271281 0.9301013 1.0344583 0.99438524 1.0074875 0.9535665
1.0256742 1.0582047 0.9730008 1.0166937 1.0222486 0.9862404 1.0376744 0.9795679
1.0314169 0.9510729 0.9738179 1.0422934 0.9884728 0.9872744 0.97225875 1.0278866
0.95383465 1.0162961 0.9732797 1.0152248 1.0294838 1.0151186 1.0172931 1.0157835
0.96995944 0.96422154 1.0431621 0.9590237 0.98075205 0.9913098 1.0217656 1.0462968
1.020406 0.9825642 1.0206568 1.0381767 1.0089147 1.0112693 1.030219 0.96495205
0.94399375 1.0891414 1.0024532 0.99213773 1.0162822 1.0206718 1.0180341 1.0823333
0.9739493 1.0086573 0.9868519 1.0010527 0.957148 1.0160577 0.9310929 1.0051517
0.9880518 0.98096293 1.0082041 1.0047688 1.0547255 1.0029519 0.9579818 0.9930546
0.95734787 0.95155287 1.0166136 1.0071844 0.99958354 0.98798597 0.981802 0.99610597
0.9667968 0.9741059 0.9735197 1.0032415 1.0250424 1.0467296 1.0160153 0.9965738
0.9673356 1.0402805 0.94974023 1.0158808 1.0138141 1.0095707 0.9824809 0.96256167
0.99581397 1.0239568 0.9983245 1.049514 1.0498409 1.0092497 1.0224695 1.0530398
1.0029619 1.0058261 0.9780388 0.9434539 1.0142487 0.9957679 1.0308113 0.98489934
0.97274417 1.0020491 1.0196673 0.9801591 1.0270042 1.014723 1.0307391 1.0064781
1.0019215 1.0074023 1.0214328 1.0223433 0.966458 0.99939495 0.98221445 0.9773836
0.9357208 1.0099401 0.99018633 1.0116229 0.94003725 0.99639547 0.9646482 0.97004414
1.0026324 0.9780047 1.0002694 0.97286326 1.0332586 1.037158 1.0517771 0.9999613
1.0264131 1.0332367 0.97529864 0.95778656 1.034546 0.99559706 1.0086967 1.053294
00000000: 0b4e 783f 0191 8a3f 03da 7d3f 4c8d 853f
00000010: 7f7f 7f3f 999f 833f 3a03 793f e34f 833f
00000020: 4496 813f 44f0 793f f109 793f 177f 833f
00000030: 19f1 7c3f 4a96 833f e7f9 803f 42cf 873f
00000040: 4953 803f 09ba 833f 3428 8d3f b796 7d3f
00000050: 034e 833f 3165 883f c652 853f 2581 803f
00000060: 0264 743f 0c8c 7a3f a0f0 803f 73e0 803f
00000070: 4a79 7b3f 5867 823f 7565 883f 4f6b 793f
00000080: e715 843f 4f51 793f 53af 753f 5a3c 723f
00000090: 7adf 733f 842c 793f bdf9 793f 0f6b 8c3f
000000a0: 651a 703f 52ed 803f a604 823f 150e 713f
000000b0: ba4e 813f 9175 7d3f dba0 733f 9b60 883f
000000c0: ca69 803f 0ae4 7a3f 6986 803f 1d28 803f
000000d0: d245 7c3f a7e6 7e3f cc0e 763f 86ba 753f
000000e0: 1f99 7a3f d02b 8c3f de98 7a3f 24d7 7f3f
000000f0: 9d5c 7d3f 0e45 813f 4547 803f ab20 7d3f
00000100: 2f19 773f 4d66 7e3f 0a0d 733f 7905 813f
00000110: e1ea 843f 8060 823f 0478 7e3f 4e9b 6a3f
00000120: 680a 863f f9d2 7a3f 9c83 813f 229a 853f
00000130: 75eb 7d3f 85cd 743f 63b4 833f bf08 803f
00000140: 1061 7b3f 625e 7b3f 718e 783f aa60 843f
00000150: 5d33 803f 09be 783f d21b 823f 015c 833f
00000160: d928 853f 98c9 7a3f f3ce 813f 318d 843f
00000170: 5704 933f 1012 7c3f 16d1 823f cc9e 7c3f
00000180: 03ec 763f ae99 823f 94b2 793f 14fa 783f
00000190: cd78 803f 87cc 7b3f a4a4 7b3f 310c 833f
000001a0: 9e88 833f 0e2e 7c3f ef78 833f 1e1b 6e3f
000001b0: 2169 843f 0890 7e3f 5af5 803f ef1c 743f
000001c0: 4b49 833f 4073 873f 9516 793f 0523 823f
000001d0: 0bd9 823f 407a 7c3f 84d2 843f f6c4 7a3f
000001e0: 7805 843f 8379 733f 214c 793f df69 853f
000001f0: 8e0c 7d3f 04be 7c3f f3e5 783f ca91 833f
00000200: 822e 743f fe15 823f dc28 793f e3f2 813f
00000210: 20c6 833f 68ef 813f a936 823f 3205 823f
00000220: 434f 783f 39d7 763f 5686 853f 9482 753f
00000230: 9112 7b3f 7bc6 7d3f 37c9 823f 0eed 853f
00000240: aa9c 823f 5489 7b3f e2a4 823f f9e2 843f
00000250: 1e24 813f 4671 813f 37de 833f 1907 773f
00000260: 93a9 713f fc68 8b3f 6350 803f bdfc 7d3f
00000270: 8915 823f 60a5 823f f14e 823f e689 8a3f
00000280: be54 793f af1b 813f 53a2 7c3f 7f22 803f
00000290: a707 753f 2e0e 823f 1b5c 6e3f d0a8 803f
000002a0: f6f0 7c3f 6320 7b3f d50c 813f 449c 803f
000002b0: 3f01 873f ba60 803f 4c3e 753f d438 7e3f
000002c0: c014 753f f898 733f 6520 823f 6beb 803f
000002d0: b5e4 7f3f a6ec 7c3f 6057 7b3f cd00 7f3f
000002e0: ff7f 773f 015f 793f 9638 793f 386a 803f
000002f0: 9734 833f 3cfb 853f ca0c 823f 761f 7f3f
00000300: 4ea3 773f e927 853f 2d22 733f 6208 823f
00000310: a9c4 813f 9d39 813f de83 7b3f 716a 763f
00000320: aaed 7e3f 0411 833f 3292 7f3f 7a56 863f
00000330: 3061 863f 182f 813f 48e0 823f 02ca 863f
00000340: 0e61 803f e9be 803f c060 7a3f 3286 713f
00000350: e7d2 813f a5ea 7e3f a0f1 833f 5d22 7c3f
00000360: c305 793f 2543 803f 7584 823f b5eb 7a3f
00000370: e074 833f 71e2 813f 42ef 833f 46d4 803f
00000380: f73e 803f 8ff2 803f 4fbe 823f 25dc 823f
00000390: cb69 773f 59d8 7f3f 6872 7b3f d035 7a3f
000003a0: 668b 6f3f b845 813f da7c 7d3f dc7c 813f
000003b0: 48a6 703f c613 7f3f 2ff3 763f d054 783f
000003c0: 4256 803f 845e 7a3f d408 803f 910d 793f
000003d0: d141 843f 98c1 843f a2a0 863f 77fd 7f3f
000003e0: 8161 833f 1a41 843f 2cad 793f 8031 753f
000003f0: 016c 843f 73df 7e3f f91c 813f 56d2 863f

ln1.bias f4 [256]
-0.06358726 -0.068557255 -0.034270596 -0.032894336 -0.059865855 -0.018670984 -0.04577091 -0.008489153
-0.049248565 -0.03978499 -0.045873772 -0.019207586 -0.016820036 0.0034207115 -0.05648903 -0.0066569224
-0.06833352 -0.009884984 -0.15558475 -0.03342798 0.015607419 -0.065329604 -0.0905288 -0.04865474
-0.07414825 -0.0863601 -0.038785726 -0.05329561 -0.030710038 -0.037902538 -0.04583749 -0.08658292
-0.03660437 -0.029918475 -0.06821389 -0.05516885 -0.08415083 -0.014708746 -0.027882736 -0.052129064
-0.03191569 -0.056783427 -0.034458525 -0.09065767 -0.011450586 -0.07938792 -0.07720566 -0.010728177
-0.04975116 -0.079201445 -0.012869231 -0.06387158 -0.086600386 -0.001377213 -0.08249554 -0.05732607
-0.054004654 -0.08370048 -0.09757883 -0.04591735 0.0041309213 -0.053443573 -0.05832703 -0.032307357
-0.08148517 -0.0824766 -0.043781303 -0.06769133 -0.026201308 -0.0837276 -0.036061417 -0.08908182
-0.04501799 -0.017631711 -0.1110472 -0.031252667 -0.07283943 -0.07169079 -0.040135957 -0.026881488
-0.069420755 -0.05730051 -0.076424755 -0.0027826112 0.0041520167 -0.03448432 -0.04509753 -0.0692756
-0.1114668 -0.11183916 -0.02995429 -0.05716208 -0.057616334 -0.026704544 -0.061720464 -0.04576805
-0.06939034 4.934609e-05 -0.07057437 -0.014669986 -0.0042835283 -0.048433784 -0.02045832 -0.06349498
-0.10442472 -0.047863636 -0.022636415 -0.12717591 -0.016398346 -0.04910058 -0.037695494 -0.0796196
-0.07513568 -0.015159274 -0.09251173 -0.06755177 -0.052064378 -0.07935559 0.008074413 -0.07606795
-0.036722135 -0.08522141 -0.0624914 -0.10331631 -0.044232298 -0.06615046 -0.07971014 -0.036812235
-0.06986882 -0.042172562 -0.080413654 -0.030751312 -0.01617386 -0.07670339 -0.09544846 -0.0855599
-0.062332187 -0.044864096 -0.08635633 -0.06413972 -0.044765707 0.0058527947 -0.09145161 -0.072342575
-0.04217413 -0.04604177 -0.071888916 -0.060618445 -0.037395068 -0.0462962 -0.034190677 -0.054145083
-0.13515656 -0.032446615 -0.020262737 -0.08188593 -0.07395069 -0.056637246 -0.0483957 -0.075105056
-0.0029249915 -0.05732185 -0.04618833 -0.05525012 -0.050861616 -0.07353661 -0.07555727 -0.10305196
-0.015313795 -0.002825892 -0.07227183 -0.06602801 -0.024304774 -0.09992491 -0.041265793 -0.049222633
-0.076691456 -0.106518544 -0.036423594 -0.037827987 -0.031852856 -0.043461226 -0.10502062 -0.049891986
-0.098460026 -0.037596073 -0.044506352 -0.044157833 -0.083341934 -0.070167564 -0.07169451 -0.010115267
-0.041938044 -0.114672445 -0.061291225 -0.02922281 -0.033726703 -0.058414 -0.0941684 -0.051936496
-0.059267197 -0.06462796 -0.036365442 -0.039427582 -0.09976336 -0.05808797 -0.060152445 -0.04178711
0.003056205 -0.081876524 -0.118768185 -0.07475269 -0.05176362 -0.02421038 -0.05019966 -0.013120116
-0.04328514 -0.012778092 -0.103640795 -0.063966095 -0.07645008 -0.07973601 -0.05647183 -0.069681086
-0.026288016 -0.050037805 -0.04315308 -0.10934947 -0.048479445 -0.09698849 -0.06521677 -0.08928455
-0.08167123 -0.083896436 -0.037456743 -0.04500494 -0.09202665 -0.03723934 -0.06247263 -0.072433665
-0.09179161 -0.030839503 -0.08365221 -0.11536968 -0.016887924 -0.001972499 -0.052982546 -0.0707232
-0.06698866 -0.061364908 -0.071020804 -0.02010254 -0.026674211 -0.065640226 -0.024961526 -0.06489896
00000000: 0a3a 82bd bf67 8cbd 535f 0cbd 36bc 06bd
00000010: e635 75bd e4f3 98bc 477a 3bbd 1716 0bbc
00000020: ddb8 49bd 96f5 22bd 23e6 3bbd 3a59 9dbc
00000030: 2cca 89bc 042e 603b 0b61 67bd 5022 dabb
00000040: 72f2 8bbd a1f4 21bc 9c51 1fbe c7eb 08bd
00000050: 43b6 7f3c 87cb 85bd 2a67 b9bd 314a 47bd
00000060: 0adb 97bd 90dd b0bd c8dd 1ebd 7f4c 5abd
00000070: 9e93 fbbc b13f 1bbd 18c0 3bbd 6352 b1bd
00000080: 77ee 15bd 9717 f5bc b9b3 8bbd bbf8 61bd
00000090: 4557 acbd f4fc 70bc 566a e4bc 4985 55bd
000000a0: 07ba 02bd bd95 68bd 6224 0dbd baaa b9bd
000000b0: 3d9b 3bbc 2296 a2bd 001e 9ebd 3cc5 2fbc
000000c0: dfc7 4bbd 5e34 a2bd 78d9 52bc 1acf 82bd
000000d0: 8b5b b1bd 9a83 b4ba 6cf3 a8bd bece 6abd
000000e0: fc33 5dbd 286b abbd 69d7 c7bd d513 3cbd
000000f0: ae5c 873b a6e7 5abd 53e8 6ebd b854 04bd
00000100: b2e1 a6bd 7ee9 a8bd 0654 33bd c1a1 8abd
00000110: 20a4 d6bc 6079 abbd 23b5 13bd 8770 b6bd
00000120: c964 38bd 6170 90bc b76c e3bd cc02 00bd
00000130: d72c 95bd 9fd2 92bd 9a65 24bd 9136 dcbc
00000140: 782c 8ebd f1b3 6abd 9584 9cbd 785c 36bb
00000150: a40d 883b 6e3f 0dbd 30b8 38bd 5ee0 8dbd
00000160: b548 e4bd ee0b e5bd b362 f5bc c922 6abd
00000170: 1bff 6bbd 7dc3 dabc 99ce 7cbd 4777 3bbd
00000180: 861c 8ebd f6f8 4e38 4c89 90bd 625a 70bc
00000190: d75c 8cbb 8162 46bd 3598 a7bc a809 82bd
000001a0: a1dc d5bd a90c 44bd 0170 b9bc 673a 02be
000001b0: d355 86bc b11d 49bd 9766 1abd 9a0f a3bd
000001c0: bce0 99bd 9b5e 78bc ca76 bdbd 9558 8abd
000001d0: 7541 55bd 2f85 a2bd 8b4a 043c 83c9 9bbd
000001e0: f369 16bd 9088 aebd fbf6 7fbd 8097 d3bd
000001f0: ed2c 35bd e479 87bd 123f a3bd 6dc8 16bd
00000200: 6217 8fbd 23bd 2cbd eaaf a4bd 2dea fbbc
00000210: 0b7f 84bc ab16 9dbd 7b7a c3bd 073a afbd
00000220: 0950 7fbd 6ac3 37bd 96db b0bd af5b 83bd
00000230: 3f5c 37bd cdc8 bf3b fb4a bbbd 5828 94bd
00000240: c8be 2cbd 4c96 3cbd 7f3a 93bd 0c4b 78bd
00000250: 922b 19bd 16a1 3dbd 860b 0cbd 3cc7 5dbd
00000260: 7b66 0abe bee6 04bd 0afe a5bc cfb3 a7bd
00000270: 7673 97bd 75fc 67bd 923a 46bd aed0 99bd
00000280: 37b1 3fbb 51ca 6abd f92f 3dbd f34d 62bd
00000290: 4554 50bd 5d9a 96bd c5bd 9abd e80c d3bd
000002a0: b6e6 7abc 9a32 39bb 4103 94bd b139 87bd
000002b0: ce1a c7bc 6ea5 ccbd 5206 29bd ac9d 49bd
000002c0: 6910 9dbd 6526 dabd e830 15bd 85f1 1abd
000002d0: 2478 02bd 6604 32bd 0d15 d7bd 8a5b 4cbd
000002e0: 69a5 c9bd 57fe 19bd 4b4c 36bd d8de 34bd
000002f0: 2daf aabd 03b4 8fbd 92d4 92bd 81ba 25bc
00000300: 3ac7 2bbd 63d9 eabd 820c 7bbd ad64 efbc
00000310: 0325 0abd 8543 6fbd 5ddb c0bd 5dbb 54bd
00000320: 29c2 72bd aa5b 84bd eef3 14bd d17e 21bd
00000330: bc50 ccbd a7ed 6dbd 6962 76bd f628 2bbd
00000340: 9d4a 483b e1ae a7bd bc3c f3bd f017 99bd
00000350: 1706 54bd d954 c6bc 299e 4dbd c1f5 56bc
00000360: c24b 31bd 345b 51bc a041 d4bd a800 83bd
00000370: dc91 9cbd a24c a3bd 014f 67bd f5b4 8ebd
00000380: f759 d7bc 71f4 4cbd 49c1 30bd 9df2 dfbd
00000390: 6292 46bd e7a1 c6bd 5f90 85bd d1da b6bd
000003a0: 3f43 a7bd e5d1 abbd 3e6c 19bd 1a57 38bd
000003b0: 7878 bcbd 4788 18bd 4de3 7fbd 1a58 94bd
000003c0: 3dfd bbbd 20a3 fcbc da51 abbd f046 ecbd
000003d0: 8b58 8abc 0b45 01bb 3a04 59bd 53d7 90bd
000003e0: 5a31 89bd c559 7bbd 5b73 91bd 15ae a4bc
000003f0: e083 dabc 626e 86bd 1d7c ccbc bfe9 84bd

fc2.weight f4 [256, 256]
0.033900563 0.002850692 0.031648237 -0.05831658 0.032563426 0.020820012 -0.06262174 0.04931036
-0.0049573896 -0.0066899424 0.049490113 0.041466102 0.06940921 -0.06282611 0.07016239 0.032053113
-0.01373288 -0.043384563 -0.042633124 0.057527192 0.070207134 0.082057156 0.012020497 -0.018616045
0.008549684 -0.0109674195 -0.0059555415 0.027098553 0.046602752 -0.028273167 -0.0746242 -0.016974598
-0.019542826 -0.06729021 0.024700185 0.006320301 -0.025232915 0.0526481 0.06071106 0.012317264
-0.051823407 -0.01638318 0.041319396 -0.00895258 -0.05461647 0.0064383275 0.042856194 -0.010293623
-0.00952118 -0.0007504303 0.06524852 0.05261196 -0.05952889 0.051100247 0.05359556 0.023226526
-0.050554007 -0.076924086 0.07142216 0.059470262 -0.007032116 0.0072953114 0.060668763 -0.03424761
0.03531015 -0.033438314 -0.02091012 0.013551465 -0.01506192 0.0039423285 0.0011228691 -0.06627097
0.016217373 -0.010197214 0.04264993 0.012937212 -0.079129 -0.0050137346 0.074738346 0.017908998
0.04364929 0.008037182 0.052740965 -0.03272351 0.07250024 0.024418341 -0.053392157 0.032830562
-0.0021704815 -0.015768563 0.0035638988 0.0689369 0.007752585 -0.022440197 -0.017458137 -0.057317004
0.04663648 -0.016021438 -0.042153493 0.008826736 0.0018337739 -0.07406773 0.013981734 0.0021837866
0.047009934 0.016972823 0.02139996 -0.0035795397 0.047041863 0.0032928118 -0.021975841 0.0014812618
0.037799437 0.00421633 -0.06790762 -0.024002949 -0.046270393 -0.033862785 0.016688835 -0.04736035
0.068178535 0.04747607 0.026053654 0.047286764 0.02647263 0.047217675 0.036723852 -0.03063578
-0.034500834 -0.0066736424 -0.030538164 0.0059422874 0.04680119 0.049802512 -0.0067130993 0.05119692
-0.028435783 -0.046085626 -0.016801879 0.012908452 0.012401937 -0.054603174 0.015502035 0.04546962
-0.041891593 -0.0034053521 -0.013414559 -0.023500217 0.04170503 -0.044952568 0.015705444 0.095650025
0.001662861 -0.06778757 -0.009139225 0.0055395174 0.020579027 -0.013418398 -0.01682273 -0.056934725
0.017796082 -0.034544222 -0.016954096 -0.008985219 -0.045148663 0.02228435 -0.033223923 -0.052642774
0.051666044 -0.045934387 -0.034242608 -0.0099360505 0.0051024556 0.07248443 0.06448287 -0.010008779
-0.05488197 -0.008233581 0.03855143 0.018574633 0.056454297 -0.08765029 0.012062638 0.019037973
-0.015306704 0.008615812 0.005549227 0.010715063 -0.05311322 -0.0784756 0.035236545 0.057076022
0.0031263772 0.05224803 0.012742382 0.016116424 -0.036497 -0.014176322 0.041163754 -0.037357688
-0.044250883 0.06535613 -0.013318061 0.044754498 0.03537661 0.024936948 0.044977132 0.017355688
0.0296781 -0.0042603146 -0.04071902 -0.036911465 -0.059118956 -0.008094911 0.0025561068 -0.041429546
0.01541854 -0.0073462403 0.038598698 -0.019298518 0.019508779 -0.06510281 0.03237976 -0.04999301
0.019438162 -0.03141504 -0.056761112 -0.06125326 -0.05755968 -0.048745092 0.028631197 -0.00047098089
-0.06103099 -0.024313994 -0.009642879 -0.0108431885 0.034652974 -0.039021254 -0.056973886 0.006233724
0.0402135 -0.06167882 0.0023673524 0.03999445 0.03361977 -0.049363162 0.039631866 0.015169982
-0.010648544 -0.06467341 -0.004580517 -0.06158589 -0.056791276 0.05972032 0.04168219 0.030263873
00000000: 51db 0a3d add2 3a3b 95a1 013d 5edd 6ebd
00000010: 3a61 053d bb8e aa3c d43f 80bd a9f9 493d
00000020: 9971 a2bb 4e37 dbbb 25b6 4a3d 5cd8 293d
00000030: 6a26 8e3d faaa 80bd 4db1 8f3d 204a 033d
00000040: e0ff 60bc 03b4 31bd 12a0 2ebd a2a1 6b3d
00000050: c2c8 8f3d 950d a83d 9ef1 443c ad80 98bc
00000060: f913 0c3c b1b0 33bc b426 c3bb c9fd dd3c
00000070: 87e2 3e3d 219d e7bc 93d4 98bd 500e 8bbc
00000080: 4718 a0bc 73cf 89bd 0b58 ca3c 871a cf3b
00000090: 42b5 cebc 89a5 573d 29ac 783d 5ace 493c
000000a0: c844 54bd 0536 86bc 873e 293d d8ad 12bc
000000b0: 85b5 5fbd 9bf8 d23b fa89 2f3d 96a6 28bc
000000c0: b9fe 1bbc 86b8 44ba 04a1 853d a37f 573d
000000d0: 91d4 73bd 7e4e 513d 0587 5b3d 8e45 be3c
000000e0: b811 4fbd 608a 9dbd c845 923d 1797 733d
000000f0: aa6d e6bb 820d ef3b cf7f 783d 3947 0cbd
00000100: 60a1 103d 9df6 08bd b34b abbc f706 5e3c
00000110: 45c6 76bc a62e 813b 3c2d 933a 13b9 87bd
00000120: 4cda 843c 3712 27bc b1b1 2e3d 9af6 533c
00000130: 630e a2bd 414a a4bb 6b10 993d e4b5 923c
00000140: 99c9 323d 62ae 033c e906 583d 1609 06bd
00000150: 017b 943d f908 c83c bcb1 5abd 5779 063d
00000160: a33e 0ebb 132d 81bc 4d90 693b ca2e 8d3d
00000170: 6609 fe3b 81d4 b7bc 5e04 8fbc 3cc5 6abd
00000180: e505 3f3d 643f 83bc 24a9 2cbd 049e 103c
00000190: 3e5b f03a d2b0 97bd a513 653c dc1d 0f3b
000001a0: 7d8d 403d 970a 8b3c f84e af3c b696 6abb
000001b0: f8ae 403d 37cc 573b ae06 b4bc e626 c23a
000001c0: 95d3 1a3d 2429 8a3b 2613 8bbd d5a1 c4bc
000001d0: 0686 3dbd b4b3 0abd 06b7 883c edfc 41bd
000001e0: 30a1 8b3d 4476 423d 796e d53c c4af 413d
000001f0: 21dd d83c 5267 413d c06b 163d e3f7 fabc
00000200: bf50 0dbd 92ae dabb 2c2b fabc 85b7 c23b
00000210: 9bb2 3f3d b8fd 4b3d 8ff9 dbbb ddb3 513d
00000220: 29f2 e8bc 48c4 3cbd 18a4 89bc f97d 533c
00000230: 7e31 4b3c 94a7 5fbd 3ffc 7d3c 5a3e 3a3d
00000240: 8596 2bbd 542c 5fbb bdc8 5bbc 8783 c0bc
00000250: e5d2 2a3d 2f20 38bd b4a8 803c 29e4 c33d
00000260: 5bf4 d93a 36d4 8abd b0bc 15bc d784 b53b
00000270: 5995 a83c d7d8 5bbc d2cf 89bc 6334 69bd
00000280: 17c9 913c 3e7e 0dbd 51e3 8abc bd36 13bc
00000290: ceed 38bd ab8d b63c cf15 08bd f39f 57bd
000002a0: c69f 533d b225 3cbd fa41 0cbd d1ca 22bc
000002b0: 8032 a73b b872 943d 980f 843d ddfb 23bc
000002c0: ebcb 60bd 24e6 06bc 1be8 1d3d d429 983c
000002d0: 9f3c 673d ff81 b3bd 5fa2 453c 86f5 9b3c
000002e0: f8c8 7abc 5629 0d3c 4ad6 b53b 3b8e 2f3c
000002f0: 3f8d 59bd d1b7 a0bd 3254 103d 8cc8 693d
00000300: e8e3 4c3b 0802 563d 6cc5 503c 9706 843c
00000310: e17d 15bd ce43 68bc 539b 283d 6004 19bd
00000320: 6a40 35bd 6fd9 853d ff33 5abc 7e50 373d
00000330: 10e7 103d 9248 cc3c f139 383d 842d 8e3c
00000340: 7d1f f33c 1c9a 8bbb fdc8 26bd 7a30 17bd
00000350: b826 72bd 85a0 04bc 5b84 273b 07b2 29bd
00000360: 0b9e 7c3c bbb8 f0bb ab19 1e3d ed17 9ebc
00000370: e0d0 9f3c 9f54 85bd a4a0 043d 78c5 4cbd
00000380: c83c 9f3c 0fad 00bd 577e 68bd b3e4 7abd
00000390: b3c3 6bbd efa8 47bd f98b ea3c fced f6b9
000003a0: a2fb 79bd 242e c7bc 2afd 1dbc a1a7 31bc
000003b0: 47f0 0d3d c0d4 1fbd 735d 69bd 4444 cc3b
000003c0: e9b6 243d eea2 7cbd 9525 1b3b 38d1 233d
000003d0: e2b4 093d 0731 4abd 0655 223d 848b 783c
000003e0: 3b77 2ebc 7e73 84bd 2918 96bb 7c41 7cbd
000003f0: f89d 68bd 4b9d 743d f2ba 2a3d f1eb f73c

fc2.bias f4 [256]
0.031086138 -0.040828113 0.020944621 0.024355836 0.05270558 0.063461795 0.06680047 -0.03044011
-0.008242321 -0.053925585 -0.044553384 -0.07558635 0.03399342 0.025290804 0.034075625 0.06360853
-0.036224503 -0.044683035 0.030181672 0.014183493 0.0060220216 -0.025207642 -0.016496386 0.043681655
0.023666603 0.027291289 -0.04668942 -0.041730583 -0.023829356 0.00026682418 0.062179063 0.008405351
0.055269316 -0.03427 0.0020364688 -0.025626298 -0.053304184 0.061740413 0.06987725 -0.005005642
0.023549622 0.059819143 0.055759702 -0.05588013 0.018202074 -0.030524952 -0.011736806 -9.125439e-06
-0.02732375 0.018862998 0.069679186 0.017286299 0.035205167 -0.034658298 -0.04980978 0.021954035
-0.031167625 -0.02391455 0.018615523 0.025648514 -0.01532445 -0.05867633 -0.011894098 -0.003561869
0.03095542 -0.049686175 0.018817576 -0.0542305 0.02798631 0.050784014 -0.037420075 -0.048444226
-0.0185718 0.018455831 0.0127043575 0.058273345 0.047590908 0.044214927 -0.0011324451 0.03228165
-0.005243029 0.009192798 0.06822476 0.012793212 -0.03137119 0.014197849 0.05030991 0.058749575
0.042471517 -0.0019653365 0.033338863 -0.046452526 0.040578526 -0.026324669 -0.004524496 0.061500493
0.031942334 0.05433627 0.01618626 0.009057473 0.036130074 -0.0009683132 -0.01600857 -0.029762214
-0.008145609 -0.04184281 -0.050638024 0.028346367 -0.0007265783 0.042145036 0.022023696 0.026333528
-0.01814837 0.009326943 0.012507313 -0.00010141253 -0.03599637 -0.0016976539 -0.028832063 0.046895683
0.018035423 0.02018223 -0.053669386 0.015929798 -0.01560872 0.021018198 -0.021682285 0.0002585387
0.06783295 -0.07650709 0.012996229 -0.04606944 -0.030052466 0.03990055 0.0023880247 0.028911376
0.038677398 -0.0006712428 -0.018759457 -0.0025887387 -0.0212444 0.027985543 0.05659057 0.024254572
0.049817093 0.014915561 -0.022424636 -0.02975269 -0.019863626 -0.0024678372 0.032245275 -0.064474165
0.042771358 -0.044671655 -0.034830146 -0.02796854 0.007419235 0.04900033 0.07578822 0.023778621
-0.0317578 -0.056271065 -0.028099142 0.037989203 -0.0066161226 0.053751312 0.009821146 -0.023292363
0.033155248 -0.028698593 -0.04945499 0.045097336 -0.03023572 -0.009339292 0.053424023 -0.043570578
0.06176482 -0.0014967738 0.0509306 0.0015543441 -0.047299743 0.04797085 0.052409343 0.051918123
0.05672749 -0.028498944 -0.010905547 -0.0330572 0.045445498 -0.02226938 0.00072991865 -0.025008552
0.00079586596 0.0071403286 -0.00693238 0.0060061896 0.047541466 -0.04435119 0.055497956 0.006469992
0.014307451 -0.041699786 0.031219691 -0.049254604 -0.03606351 -0.06007436 -0.0406913 0.013106144
0.06321109 0.0006206951 -0.027024534 0.03642399 -0.026176844 -0.04367728 -0.010343284 -0.0061890064
-0.024135455 0.011265354 -0.02490701 0.022897847 0.0003312981 0.015294699 0.051381808 -0.017936716
0.011964972 0.04875993 -0.026581611 -0.02695943 -0.010132535 -0.0029437244 -0.050344218 -0.059597902
0.052367464 -0.031940367 -0.024635645 -0.031586453 0.0403657 0.023755241 -0.005396442 -0.012784231
-0.03393089 -0.0024590201 0.036871765 0.008739715 -0.034987148 -0.011004463 -0.043899067 -0.05196381
0.03251609 0.050428968 0.03611616 0.01765277 0.018350542 0.044631384 0.05115251 0.040763102
00000000: 5ba8 fe3c 613b 27bd 0e94 ab3c e485 c73c
00000010: cee1 573d 42f8 813d afce 883d 8a5d f9bc
00000020: cd0a 07bc 13e1 5cbd 9c7d 36bd 04cd 9abd
00000030: af3c 0b3d a92e cf3c e292 0b3d 3045 823d
00000040: 2560 14bd 8f05 37bd 8e3f f73c e261 683c
00000050: 6154 c53b 4280 cebc 6e23 87bc 89eb 323d
00000060: 77e0 c13c fb91 df3c 683d 3fbd b0ed 2abd
00000070: c835 c3bc 89e4 8b39 79af 7e3d 99b6 093c
00000080: 1462 623d b35e 0cbd 4776 053b 3eee d1bc
00000090: 7d55 5abd 84e3 7c3d ce1b 8f3d 5e06 a4bb
000000a0: 23eb c03c eb04 753d 4964 643d 90e2 64bd
000000b0: 841c 953c 770f fabc bb4b 40bc 7619 19b7
000000c0: 0fd6 dfbc 9386 9a3c f6b3 8e3d ff9b 8d3c
000000d0: 4b33 103d dcf5 0dbd 5705 4cbd f3d8 b33c
000000e0: 3f53 ffbc 72e8 c3bc 957f 983c d51c d23c
000000f0: 6713 7bbc 9756 70bd 76df 42bc 3f6e 69bb
00000100: 3996 fd3c bb83 4bbd 5127 9a3c cd20 5ebd
00000110: 8c43 e53c e602 503d cb45 19bd 746d 46bd
00000120: e323 98bc af30 973c f025 503c 08b0 6e3d
00000130: afee 423d b61a 353d 8d6e 94ba c339 043d
00000140: b7cd abbb 649d 163c 6cb9 8b3d 9f9a 513c
00000150: 147f 00bd 189e 683c c411 4e3d 65a3 703d
00000160: 9df6 2d3d e0cc 00bb 558e 083d 0145 3ebd
00000170: ab35 263d d5a6 d7bc 3942 94bb f1e7 7b3d
00000180: f7d5 023d b58f 5e3d 0c99 843c cc65 143c
00000190: 21fd 133d 66d6 7dba 6824 83bc e3cf f3bc
000001a0: 2975 05bc 5e63 2bbd d169 4fbd a436 e83c
000001b0: d877 3eba 46a0 2c3d 0a6b b43c 69b9 d73c
000001c0: e4ab 94bc 09d0 183c 79eb 4c3c 70ad d4b8
000001d0: ee70 13bd d083 deba 3831 ecbc b015 403d
000001e0: 06bf 933c 3455 a53c 6ed4 5bbd 357f 823c
000001f0: b7bb 7fbc 5b2e ac3c 0c9f b1bc 7a8c 8739
00000200: 00ec 8a3d c0af 9cbd 23ee 543c 4fb3 3cbd
00000210: 9730 f6bc c26e 233d 6880 1c3b 8dd7 ec3c
00000220: 316c 1e3d 57f6 2fba 6fad 99bc d4a7 29bb
00000230: bc08 aebc f041 e53c 83cb 673d 86b1 c63c
00000240: 020d 4c3d 6660 743c dfb3 b7bc eabb f3bc
00000250: 0bb9 a2bc 70bb 21bb 9f13 043d 080b 84bd
00000260: 0531 2f3d a0f9 36bd 0eaa 0ebd 481e e5bc
00000270: 0e1d f33b 92b4 483d db36 9b3d 62cb c23c
00000280: 7814 02bd 7d7c 66bd 2c30 e6bc 919a 1b3d
00000290: 0fcc d8bb 562a 5c3d dfe8 203c a0cf bebc
000002a0: cccd 073d 5019 ebbc 5191 4abd fcb7 383d
000002b0: e7b0 f7bc d403 19bc 26d3 5a3d 1077 32bd
000002c0: 1cfd 7c3d 652f c4ba 9b9c 503d 22bb cb3a
000002d0: 60bd 41bd 157d 443d 2eab 563d 19a8 543d
000002e0: 165b 683d 9e76 e9bc 2ead 32bc fd66 07bd
000002f0: 0f25 3a3d 466e b6bc 0358 3f3a bcde ccbc
00000300: a9a1 503a 6bf9 e93b 0529 e3bb 92cf c43b
00000310: d7ba 423d 98a9 35bd d351 633d 3a02 d43b
00000320: cd69 6a3c 65cd 2abd 70c0 ff3c 32bf 49bd
00000330: 55b7 13bd 8810 76bd ecab 26bd 27bb 563c
00000340: d174 813d 25b6 223a 8e62 ddbc 5231 153d
00000350: d270 d6bc f3e6 32bd e176 29bc 26cd cabb
00000360: b8b7 c5bc 5292 383c c909 ccbc 4494 bb3c
00000370: 14b2 ad39 9e96 7a3c bb75 523d 05f0 92bc
00000380: bb08 443c 7eb8 473d aec1 d9bc 06da dcbc
00000390: ef02 26bc 80eb 40bb bd35 4ebd ee1c 74bd
000003a0: 447f 563d e7d3 02bd b1d0 c9bc cc60 01bd
000003b0: 8156 253d 5a9a c23c a3d4 b0bb f474 51bc
000003c0: 1efb 0abd 8327 21bb d906 173d 0631 0f3c
000003d0: af4e 0fbd 104c 34bc 82cf 33bd 01d8 54bd
000003e0: 972f 053d 9b8e 4e3d 8aee 133d 8b9c 903c
000003f0: e053 963c 66cf 363d 4b85 513d 36f7 263d

ln2.weight f4 [256]
1.158873 1.0743715 1.0324006 1.0763997 1.2359208 1.063674 1.1881796 1.0447463
1.106905 1.1471688 1.0419998 1.4207377 1.1326216 1.171374 1.1145977 1.0300539
1.185234 1.2221093 1.166565 1.1987342 1.3564138 1.3148384 1.0809665 1.0230606
1.0304866 1.1104516 1.1728851 1.1568556 1.1474335 1.2283684 1.1095498 1.0476478
1.2465811 1.0293591 1.1442207 1.1795539 1.0137807 1.0718379 1.1008056 1.0602065
1.2993364 1.0293756 1.0110304 1.213113 1.0484972 1.1139504 1.020248 1.0721698
1.1778623 1.0454742 1.084426 1.0671839 1.0498488 1.036231 1.0321801 1.165635
1.1237489 1.1848618 1.3282262 1.0301312 1.1941571 1.2023091 1.1417433 1.0452317
1.1329234 1.0158271 1.040545 1.1102964 1.1283164 1.3346958 1.0377951 1.0581644
1.195142 1.2952282 1.233971 1.1373074 1.2751374 1.0701563 1.0905032 1.0946555
1.2403898 1.0547059 1.0564884 1.3344063 1.0137523 1.1720113 1.088462 1.0761775
1.1109958 1.0735399 1.1865801 1.0284954 1.0399095 1.1094451 1.0737798 1.0962764
1.3865702 1.1314343 1.0785776 1.1943923 1.0348254 1.0899817 1.0364051 1.3467486
1.2151891 1.1022245 1.2056363 1.1492127 1.0478415 1.0396879 1.0464984 1.2568506
1.1262801 1.0542866 1.0252198 1.0450604 1.0131781 1.1481979 1.0146209 1.1249783
1.0158031 1.1710424 1.029475 1.090996 1.0522462 1.241587 1.125956 1.1254158
1.0831946 1.2483826 1.0346212 1.0163388 1.3672025 1.0242177 1.2911181 1.2966558
1.3448658 1.1246822 1.1368749 1.4728696 1.0550528 1.2757939 1.2338613 1.0990294
1.1900033 1.0336965 1.1302068 1.0632807 1.1747541 1.045614 1.1370429 1.1285937
1.0813792 1.0190208 1.1182938 1.2195529 1.2628437 1.1665878 1.3627745 1.141432
1.0291634 1.1332842 1.1778307 1.2362494 1.1327218 1.3335694 1.0292306 1.0490214
1.0688812 1.1372224 1.0388097 1.2469484 1.0597897 1.2023873 1.0412489 1.1254627
1.103855 1.1256171 0.99786264 1.0812924 1.2362896 1.0921701 1.0430889 1.1546423
1.0462548 1.2654811 1.0253556 1.0997856 1.3044873 1.1284885 1.1378691 1.1895
1.0460534 1.0535561 1.0290195 1.1408178 1.1479948 1.2228026 1.2620746 1.0422692
1.0944408 1.0939307 1.2671136 1.1225129 1.114254 1.3183568 1.029541 1.1494517
1.2272578 1.1160117 1.1363732 1.0336616 1.3159403 1.060626 1.0329475 1.0348177
1.2276309 1.1803292 1.091134 1.2281755 1.1298176 1.0459784 1.0147009 1.1099061
1.133997 1.2707176 1.0982494 1.1097691 1.0990157 1.0562965 1.0799637 1.1885448
1.1455239 1.193773 1.4751903 1.053201 1.0507189 1.3123629 1.0587962 1.1322849
1.2506751 1.0959338 1.1502978 1.4780703 1.2449847 1.0965184 1.2379375 1.0664836
1.0132725 1.0681369 1.0699787 1.132668 1.2473576 1.0181206 1.2341708 1.1242375
00000000: f355 943f 0185 893f b425 843f 77c7 893f
00000010: a732 9e3f 7826 883f 4516 983f 3fba 853f
00000020: 10af 8d3f 6dd6 923f 4060 853f bcda b53f
00000030: bff9 903f 95ef 953f 23ab 8e3f ced8 833f
00000040: bfb5 973f 146e 9c3f 0052 953f 1f70 993f
00000050: f89e ad3f a04c a83f 1c5d 8a3f a6f3 823f
00000060: fce6 833f 4723 8e3f 1921 963f d813 943f
00000070: 1adf 923f 2d3b 9d3f ba05 8e3f 5319 863f
00000080: f88f 9f3f 0ac2 833f d375 923f 9ffb 963f
00000090: 91c3 813f fc31 893f 33e7 8c3f d9b4 873f
000000a0: a850 a63f 94c2 833f 7269 813f 4947 9b3f
000000b0: 2835 863f ed95 8e3f 7d97 823f dc3c 893f
000000c0: 31c4 963f 19d2 853f 79ce 8a3f 7b99 883f
000000d0: 7261 863f 38a3 843f 7a1e 843f 8733 953f
000000e0: 01d7 8f3f 8da9 973f 5103 aa3f 57db 833f
000000f0: 24da 983f 44e5 993f a524 923f 27ca 853f
00000100: a203 913f 9f06 823f 9430 853f 311e 8e3f
00000110: ac6c 903f 50d7 aa3f 78d6 843f ee71 873f
00000120: 6afa 983f 0aca a53f c3f2 9d3f 4a93 913f
00000130: b437 a33f e2fa 883f 9c95 8b3f ac1d 8c3f
00000140: 18c5 9e3f 9a00 873f 033b 873f d3cd aa3f
00000150: a3c2 813f 7704 963f b952 8b3f 2fc0 893f
00000160: 1c35 8e3f c169 893f dbe1 973f bda5 833f
00000170: c11b 853f 4c02 8e3f 9e71 893f c952 8c3f
00000180: 227b b13f d7d2 903f d50e 8a3f d9e1 983f
00000190: 2975 843f 8584 8b3f eca8 843f 4262 ac3f
000001a0: 518b 9b3f b115 8d3f 4a52 9a3f 6719 933f
000001b0: ac1f 863f 7e14 853f a9f3 853f 7be0 a03f
000001c0: f229 903f ddf2 863f 673a 833f 8ac4 853f
000001d0: d2af 813f 26f8 923f 19df 813f 4aff 8f3f
000001e0: d605 823f b8e4 953f d6c5 833f c2a5 8b3f
000001f0: 01b0 863f 53ec 9e3f 541f 903f a00d 903f
00000200: 1fa6 8a3f 00cb 9f3f 786e 843f 6417 823f
00000210: 7e00 af3f 9119 833f 5c43 a53f d1f8 a53f
00000220: 9024 ac3f 96f5 8f3f 1e85 913f fe86 bc3f
00000230: f80b 873f 374d a33f 2bef 9d3f ffac 8c3f
00000240: 0752 983f 2b50 843f 9eaa 903f 9519 883f
00000250: 585e 963f aed6 853f 9f8a 913f c275 903f
00000260: a26a 8a3f 466f 823f 4024 8f3f 4f1a 9c3f
00000270: dda4 a13f c052 953f 656f ae3f 721a 923f
00000280: a0bb 833f 750f 913f 28c3 963f 6c3d 9e3f
00000290: 07fd 903f 67b2 aa3f d4bd 833f 5546 863f
000002a0: 19d1 883f 8190 913f b7f7 843f 019c 9f3f
000002b0: 30a7 873f d4e7 993f a547 853f 290f 903f
000002c0: 1f4b 8d3f 3914 903f ed73 7f3f ca67 8a3f
000002d0: bd3e 9e3f 3bcc 8b3f f083 853f 52cb 933f
000002e0: adeb 853f 49fb a13f da3e 833f c6c5 8c3f
000002f0: 71f9 a63f 5072 903f b2a5 913f 8941 983f
00000300: 14e5 853f edda 863f e9b6 833f 5106 923f
00000310: 7ef1 923f cc84 9c3f a98b a13f 1469 853f
00000320: a316 8c3f ec05 8c3f c730 a23f 81ae 8f3f
00000330: e09f 8e3f eabf a83f 00c8 833f 3c21 933f
00000340: c916 9d3f 79d9 8e3f ad74 913f 064f 843f
00000350: bb70 a83f 98c2 873f a037 843f e874 843f
00000360: 0223 9d3f 0715 973f 47aa 8b3f db34 9d3f
00000370: dd9d 903f 9fe2 853f b8e1 813f 6711 8e3f
00000380: d026 913f e0a6 a23f 7093 8c3f ea0c 8e3f
00000390: 8cac 8c3f b934 873f 403c 8a3f 3c22 983f
000003a0: 87a0 923f 8ecd 983f 09d3 bc3f 4acf 863f
000003b0: f57d 863f 82fb a73f a286 873f b6ee 903f
000003c0: 1f16 a03f 8f47 8c3f f53c 933f 6831 bd3f
000003d0: a95b 9f3f b75a 8c3f bc74 9e3f 8982 883f
000003e0: eab2 813f b6b8 883f 10f5 883f 44fb 903f
000003f0: 6aa9 9f3f c751 823f 4ff9 9d3f 04e7 8f3f

ln2.bias f4 [256]
0.1426069 0.012605593 0.023251165 0.032967985 0.15961076 0.033677213 0.03288983 0.010890039
0.07141131 0.15488085 0.022280755 0.18106365 0.1427875 0.1665217 0.063273914 -0.0028570946
0.00739896 0.16791882 0.05601811 0.049325176 0.1783802 0.15881301 0.050474863 0.005618084
0.028162835 0.044106644 0.0028709737 0.04877619 0.14882213 0.14393657 0.07538789 -0.007821263
0.014650573 0.0053227497 0.043648764 0.032281093 -0.005184275 0.008800181 0.04568738 0.049011104
0.029430486 0.013940835 0.0076402593 0.15294267 0.044874538 0.026408523 0.026568742 0.027777676
0.15025452 0.0062290714 0.048175022 0.009513421 0.026745973 0.022131834 0.020268934 0.14060374
-0.0041444898 0.09459902 -0.003309158 0.023161352 0.04247236 0.03645639 0.14555989 0.022997359
-0.0016729461 0.0021498043 0.0036327199 0.13616428 0.14455573 0.16197741 0.016151996 0.00451035
0.1414012 0.11066182 0.03558251 0.0076363822 0.1516377 0.0014895627 0.017179644 0.13109331
0.13114055 0.023972478 0.03456775 0.17076704 0.00080931484 0.14694478 0.035403755 0.044608407
0.14029069 0.024002349 0.014922267 0.008148078 0.013045436 0.14685005 0.039143115 0.035992917
0.18838738 0.12915151 0.031305097 0.13951011 0.013291633 0.026230292 0.014230076 0.17373069
0.16128476 0.026690103 0.14361542 0.013048412 0.024145393 0.0061488086 0.019619327 -0.0026677514
0.06255436 -0.0019976161 -0.017988376 -0.0011231059 0.0053093885 0.14835632 -0.0062674414 0.030135732
-0.0025271438 0.019289061 -0.0054775774 0.011682538 0.01910683 0.14755224 0.13595115 0.14773263
0.043209627 0.15570948 0.0076054647 -0.013330946 0.11726982 0.014933126 0.10617186 0.1618707
0.16805038 0.04070334 0.13861305 0.18179256 0.007876764 0.15161474 0.0096673705 0.030933956
0.14763491 0.017386772 0.14863746 0.021940287 0.059535157 0.010762666 0.14920595 0.14640392
0.036129713 0.014284002 0.055415157 -0.0011564657 0.16090687 0.035062417 0.08331881 0.029413415
0.019392123 0.15307392 0.14379281 0.06166495 0.012501186 0.047208317 0.013506506 0.01933297
0.007869238 0.14435789 0.0024522159 0.16545418 0.0263796 0.05078062 0.02203502 0.03552793
0.031556115 0.033638068 -0.016018357 0.030891687 0.16510162 0.15400614 -0.0016884711 0.1517782
0.022612125 0.16565089 0.024431944 0.033055287 0.16023968 0.14013804 0.14424306 0.15880138
0.02653149 0.02461571 0.011592783 0.15236026 0.1449964 0.036067713 0.15181334 0.021597141
0.012194262 0.018234195 0.120383136 0.13554114 0.033170737 0.14985062 0.0011683641 0.037196133
0.044714954 0.038992744 0.038841307 0.01180283 0.16293322 -0.0025081506 0.015648147 0.020374233
0.15918887 0.04122342 0.025149422 0.15142879 0.052729435 0.011563478 0.001685554 0.13126649
-2.5871677e-05 0.056680392 0.040621087 0.017798983 0.025662651 0.021405103 0.017963732 0.1530258
0.1146713 0.024609981 0.19903012 0.039858993 0.005569861 0.17100911 0.01944759 0.036790717
0.14855394 0.14104865 0.14101107 0.18907906 0.16438808 -0.012432358 0.15247631 0.013470369
0.0071831066 -0.009365162 0.01635827 0.0852101 0.15815271 0.008115598 0.15553604 0.024002293
00000000: 8b07 123e b087 4e3c 3a79 be3c 7009 073d
00000010: 0171 233e 1ef1 093d 7db7 063d 226c 323c
00000020: 1840 923d 1699 1e3e 2186 b63c c068 393e
00000030: e336 123e aa84 2a3e c195 813d 183e 3bbb
00000040: fa72 f23b e9f2 2b3e 3f73 653d 3209 4a3d
00000050: 4da9 363e e19f 223e bbbe 4e3d e817 b83b
00000060: bfb5 e63c 2ba9 343d f226 3c3b 8bc9 473d
00000070: d464 183e 1c64 133e f764 9a3d c124 00bc
00000080: f508 703c 766a ae3b 0cc9 323d 2e39 043d
00000090: dae0 a9bb a22e 103c b122 3b3d debf 483d
000000a0: 3418 f13c 1a68 643c 245b fa3b 019d 1c3e
000000b0: 5dce 373d b056 d83c b1a6 d93c 028e e33c
000000c0: 52dc 193e 3d1d cc3b 2c53 453d 2ede 1b3c
000000d0: 5f1a db3c d24d b53c 090b a63c 6dfa 0f3e
000000e0: 80ce 87bb 22bd c13d 75de 58bb e0bc bd3c
000000f0: 7ff7 2d3d 4c53 153d a70d 153e f564 bc3c
00000100: c246 dbba bbe3 0c3b ed12 6e3b a66e 0b3e
00000110: 6b06 143e 68dd 253e 3151 843c 8fcb 933b
00000120: 7acb 103e aaa2 e23d f7be 113d 9e3a fa3b
00000130: ea46 1b3e 6e3d c33a 53bc 8c3c 533d 063e
00000140: b549 063e ee61 c43c ea96 0d3d 8edd 2e3e
00000150: 3328 543a b178 163e 8703 113d 4eb7 363d
00000160: 5da8 0f3e 93a0 c43c 867c 743c 847f 053c
00000170: 86bc 553c dc5f 163e 8854 203d 4f6d 133d
00000180: 9fe8 403e 4b40 043e c639 003d bddb 0e3e
00000190: 26c5 593c e9e0 d63c 4425 693c 75e6 313e
000001a0: d527 253e 34a5 da3c ec0f 133e 02c9 553c
000001b0: 8fcc c53c f27b c93b b6b8 a03c 71d5 2ebb
000001c0: 801c 803d 70ea 02bb 5c5c 93bc 2e35 93ba
000001d0: 61fa ad3b b8ea 173e 1c5f cdbb 36df f63c
000001e0: 709e 25bb 1804 9e3c 407d b3bb 1e68 3f3c
000001f0: ed85 9c3c ef17 173e c736 0b3e 3947 173e
00000200: 94fc 303d 4e72 1f3e 4337 f93b 0a6a 5abc
00000210: 292b f03d 12aa 743c a270 d93d 6fc1 253e
00000220: 6615 2c3e 8cb8 263d 94f0 0d3e d427 3a3e
00000230: 8b0d 013c e540 1b3e e463 1e3c 3569 fd3c
00000240: 9b2d 173e b46e 8e3c 6b34 183e 1ebc b33c
00000250: 23db 733d e555 303c 72c9 183e e9ea 153e
00000260: c0fc 133d 7207 6a3c 01fb 623d 8d94 97ba
00000270: c5c4 243e 9c9d 0f3d 0da3 aa3d 67f4 f03c
00000280: 3bdc 9e3c 69bf 1c3e 6c3e 133e 6394 7c3d
00000290: c6d1 4c3c 825d 413d 644a 5d3c 2d60 9e3c
000002a0: faed 003c 8ed2 133e 5bb5 203b d26c 293e
000002b0: 081a d83c 57ff 4f3d c982 b43c bc85 113d
000002c0: fc40 013d 12c8 093d ee38 83bc 9010 fd3c
000002d0: 6610 293e c9b3 1d3e b04f ddba bf6b 1b3e
000002e0: 103d b93c 63a0 293e 8025 c83c fb64 073d
000002f0: df15 243e 5980 0f3e 74b4 133e d49c 223e
00000300: 9158 d93c e3a6 c93c a8ef 3d3c 5404 1c3e
00000310: f079 143e bdbb 133d f574 1b3e 7dec b03c
00000320: 71ca 473c e15f 953c 6f8b f63d 4ccb 0a3e
00000330: 0ade 073d 7172 193e cb23 993a f95a 183d
00000340: 0727 373d dbb6 1f3d 1018 1f3d a860 413c
00000350: f7d7 263e c95f 24bb 8b30 803c dde7 a63c
00000360: 6802 233e e4d9 283d 2906 ce3c 2610 1b3e
00000370: d2fa 573d be74 3d3c cfed dc3a b96a 063e
00000380: 0107 d9b7 b329 683d 4c62 263d 2ccf 913c
00000390: 7b3a d23c c159 af3c ad28 933c ccb2 1c3e
000003a0: c9d8 ea3d df9a c93c 8dce 4b3e 2f43 233d
000003b0: 6183 b63b 031d 2f3e 8d50 9f3c ddb1 163d
000003c0: 861e 183e 0f6f 103e 3565 103e f19d 413e
000003d0: 5955 283e 17b1 4bbc c022 1c3e d3b2 5c3c
000003e0: 4460 eb3b 5670 19bc c701 863c a282 ae3d
000003f0: c9f2 213e 49f7 043c d744 1f3e 75a0 c43c
