models/trained_dqn_predict_daily_return_3yrs_2.pth (torch, 844774 bytes, 15 tensors)

fc1.weight f4 [256, 25]
0.18951674 0.16785116 -0.023966504 0.1629456 -0.052249312 0.06729538 -0.090959415 0.13886692
0.12274456 -0.11135627 0.18283162 0.0068761404 0.12755215 0.073051676 0.035311535 -0.06320738
0.10694085 -0.020522173 -0.0720423 0.055093575 -0.0017389265 -0.043149687 -0.08697491 0.12169237
-0.121632546 -0.011507041 -0.11934051 -0.054743476 0.029581066 -0.25074258 0.17540999 -0.1320532
0.12337011 0.04554087 -0.11694764 0.11485939 0.024856903 0.11899791 0.049119864 -0.12403836
0.07980658 -0.060166787 0.012982095 0.26819444 0.033035155 -0.0875483 0.11395617 0.022941722
0.10919685 -0.14301266 -0.16365886 -0.10864332 -0.13951254 0.12315319 0.09677749 0.04314236
0.05633379 0.015500751 0.16455874 -0.12689422 0.006215103 -0.22759217 -0.03705599 -0.09726929
0.06640275 -0.05238195 0.14083466 -0.06714381 -0.16683264 -0.036926374 0.14424427 0.13444985
0.20362593 -0.06945479 -0.20069112 -0.14804517 -0.1076747 0.094137475 0.013155024 0.16523091
-0.07161671 -0.14694041 0.085593805 -0.11960319 0.092494756 -0.018472457 0.06982617 -0.062078774
-0.08524406 0.04840613 0.079331726 -0.0122510195 0.20552641 0.1859246 -0.1729761 -0.14634429
0.13228616 -0.12200526 -0.102929145 -0.15586716 -0.09186498 0.06566104 -0.02266665 -0.11498343
-0.026760405 -0.08409933 -0.1673121 -0.06868387 -0.22919501 -0.06590984 0.14998393 0.04975809
0.028608503 -0.22563069 -0.12366104 -0.037415426 0.03193984 -0.12390551 -0.12028602 -0.15691507
-0.0069186245 -0.06219768 -0.04061336 -0.12860857 -0.12406593 -0.075203896 -0.0653676 -0.17033699
0.08438135 -0.06278011 0.20323122 0.1339853 -0.23908377 0.1878572 -0.03520261 -0.083195716
-0.21510503 -0.28847927 0.06984579 0.015517664 0.07467856 -0.063982524 0.1839811 -0.025444742
-0.014139461 0.020226054 0.1120381 0.18800446 0.15977749 -0.18627591 0.056940313 -0.06252822
0.005436924 -0.12995811 0.10764166 -0.13508366 0.04568416 0.0673985 0.12219887 -0.12934434
0.13680592 0.06684892 -0.0057063787 -0.1735065 0.11534327 -0.054897737 -0.10716717 0.08317914
0.028139323 -0.104264215 -0.046557374 -0.017356409 0.13666825 -0.079667054 -0.13041735 -0.059020713
-0.21998684 0.13869184 0.16481604 -0.22223625 0.034060825 0.13247249 0.044274315 -0.019630035
0.122762755 0.12970187 -0.012607449 -0.04903551 -0.016913356 0.025036503 -0.028186688 -0.061666343
0.07458355 0.17843476 -0.010149226 -0.040580377 0.013250934 -0.0070562456 -0.034287773 0.11621512
-0.2336513 -0.045268618 0.18457991 0.053557087 -0.029882353 -0.096613154 -0.044866044 -0.21228656
-0.06031612 0.10929922 0.11175096 0.15568706 -0.20020297 -0.16730626 -0.028427582 0.17342205
-0.022279179 0.002805923 0.124067895 -0.10264973 -0.17535737 0.11068275 -0.07931697 -0.034422968
-0.12669943 0.18883263 0.20828295 0.07979251 -0.10223376 -0.10473961 -0.13902535 0.11079192
0.1645494 0.114977956 -0.0049363268 -0.016779028 -0.014199239 -0.1695952 -0.1850714 -0.14938007
0.10896254 -0.10330462 -0.105179936 -0.12079861 -0.01856296 -0.1636005 -0.21469969 0.0584222
0.0039499816 0.11229487 0.02368228 -0.1122023 0.07920648 -0.16424802 -0.013390719 -0.20023832
00000000: ad10 423e 2de1 2b3e 6755 c4bc 36db 263e
00000010: 6003 56bd 29d2 893d ee48 babd 2133 0e3e
00000020: 8061 fb3d c20e e4bd 3638 3b3e 3f51 e13b
00000030: 089d 023e 1e9c 953d d4a2 103d df72 81bd
00000040: ce03 db3d 1e1e a8bc ea8a 93bd cda9 613d
00000050: b1ec e3ba babd 30bd e71f b2bd d939 f93d
00000060: 7c1a f9bd 0788 3cbc cc68 f4bd b23a 60bd
00000070: fe53 f23c 5561 80be ad9e 333e f438 07be
00000080: 78a9 fc3d 1089 3a3d 3f82 efbd 663b eb3d
00000090: b4a0 cb3c 2db5 f33d e931 493d d307 febd
000000a0: a271 a33d 7371 76bd dab2 543c c850 893e
000000b0: df4f 073d 864c b3bd da61 e93d 47f0 bb3c
000000c0: 99a2 df3d e971 12be 3096 27be 6480 debd
000000d0: 60dc 0ebe bd37 fc3d 4733 c63d 0bb6 303d
000000e0: 43be 663d ddf6 7d3c 1682 283e 8ff0 01be
000000f0: 10a8 cb3b ec0d 69be 06c8 17bd 1f35 c7bd
00000100: 2afe 873d 758e 56bd f636 103e b282 89bd
00000110: 2dd6 2abe 1c40 17bd c5b4 133e 39ad 093e
00000120: 5183 503e 503e 8ebd f981 4dbe 2799 17be
00000130: 8e84 dcbd 26cb c03d 2b88 573c 4b32 293e
00000140: c8ab 92bd 8c77 16be ce4b af3d 84f2 f4bd
00000150: e46d bd3d 8d53 97bc 0601 8f3d 5046 7ebd
00000160: 7094 aebd 8245 463d ac78 a23d 80b8 48bc
00000170: 8475 523e 0563 3e3e a620 31be 47db 15be
00000180: 0676 073e e5dd f9bd 84cc d2bd a49b 1fbe
00000190: b523 bcbd 4c79 863d 69af b9bc 6f7c ebbd
000001a0: a338 dbbc 453c acbd dd53 2bbe 21aa 8cbd
000001b0: 19b2 6abe bdfb 86bd 6395 193e 24cf 4b3d
000001c0: 615c ea3c bb0b 67be 0042 fdbd eb40 19bd
000001d0: 5ad3 023d 2cc2 fdbd 8458 f6bd 58ae 20be
000001e0: a1b5 e2bb ffc2 7ebd 325a 26bd f7b1 03be
000001f0: 4716 febd 8004 9abd 73df 85bd d26c 2ebe
00000200: 21d0 ac3d dc92 80bd d81b 503e 7133 093e
00000210: 60d2 74be a35d 403e 9d30 10bd 8462 aabd
00000220: 7e44 5cbe 8eb3 93be 4f0b 8f3d cd3d 7e3c
00000230: 13f1 983d 4509 83bd 8b65 3c3e 7e71 d0bc
00000240: 33a9 67bc 1cb1 a53c 3b74 e53d 3e84 403e
00000250: b69c 233e 1dbf 3ebe 3f3a 693d cc0e 80bd
00000260: 3928 b23b bd13 05be 3b73 dc3d 5f53 0abe
00000270: 501f 3b3d 3a08 8a3d 6743 fa3d d872 04be
00000280: da16 0c3e 16e8 883d 93fc babb b0ab 31be
00000290: 1839 ec3d 73dc 60bd 767a dbbd d359 aa3d
000002a0: 7084 e63c 7a88 d5bd f2b2 3ebd 072f 8ebc
000002b0: c3f2 0b3e 7b28 a3bd 208c 05be b4bf 71bd
000002c0: 3b44 61be 3c05 0e3e 89c5 283e e691 63be
000002d0: 5d83 0b3d dea6 073e fc58 353d 2bcf a0bc
000002e0: 0a6b fb3d 91d0 043e 798f 4ebc 75d9 48bd
000002f0: e18d 8abc 5a19 cd3c c5e7 e6bc d995 7cbd
00000300: 43bf 983d 9ab7 363e f048 26bc 9c37 26bd
00000310: 721a 593c 1438 e7bb 5671 0cbd 3102 ee3d
00000320: 4942 6fbe 966b 39bd 8402 3d3e ad5e 5b3d
00000330: d6cb f4bc 1edd c5bd 75c5 37bd a661 59be
00000340: 090e 77bd 45d8 df3d b0dd e43d 6e6c 1f3e
00000350: 0202 4dbe 5552 2bbe f6e0 e8bc 8d95 313e
00000360: d382 b6bc 94e3 373b 4f17 fe3d 063a d2bd
00000370: e290 33be a3ad e23d f070 a2bd 19ff 0cbd
00000380: 7fbd 01be 575d 413e 2048 553e 416a a33d
00000390: ef5f d1bd b881 d6bd a95c 0ebe e0e6 e23d
000003a0: a37f 283e 9079 eb3d e9c0 a1bb 2c74 89bc
000003b0: eda3 68bc 5daa 2dbe 5b83 3dbe 17f7 18be
000003c0: c127 df3d 5f91 d3bd 9468 d7bd 4365 f7bd
000003d0: 5911 98bc e486 27be 3cda 5bbe 1e4c 6f3d
000003e0: d96e 813b dafa e53d 5701 c23c 52ca e5bd
000003f0: 0237 a23d a230 28be bf64 5bbc 460b 4dbe

fc1.bias f4 [256]
0.06434039 -0.21786277 0.12936331 -0.08073461 -0.009700794 -0.023217425 0.13394654 0.023644997
-0.05623426 -0.04496879 0.024208928 -0.14563963 0.1309545 -0.14107656 0.0022926305 -0.14972523
0.027442526 -0.07682336 -0.07255413 0.12764263 -0.15152308 0.019682711 0.03284642 -0.10911029
0.08085647 0.13454483 0.0519387 0.03694085 0.11961129 -0.0523944 -0.18758029 0.13842343
-0.07282741 0.04772056 -0.00037554477 0.1515366 0.19099556 -0.13560808 0.035259597 -0.16071013
0.114950486 0.2116449 -0.019067498 -0.009126893 -0.001825123 -0.10861969 0.13155222 -0.1687691
-0.04118249 0.023853501 -0.15019286 0.07995787 0.13010664 -0.12082538 0.07599176 -0.011700852
0.23263776 -0.18226396 0.1657586 -0.041867584 0.18349935 -0.13677837 0.08049851 0.11022688
0.14408118 0.09624267 0.12628806 -0.041009422 -0.1353073 -0.033525225 0.15471807 0.15989584
-0.07561194 0.16283973 0.06802829 -0.01858402 0.018092843 -0.012214266 0.06176215 -0.047199458
0.0042001093 0.17514886 0.118472554 -0.14139763 -0.016295854 0.1354802 -0.04551508 -0.011907415
0.08820199 0.119749896 0.17654967 -0.228274 -0.20741184 0.15522456 0.027426297 0.18909033
0.10195296 -0.06337985 0.08563284 0.10030879 -0.062221933 0.19817835 0.022945384 -0.082959056
-0.18157129 0.105634086 -0.18554613 0.15591906 -0.044844158 -0.07397607 0.03488498 0.21244256
-0.119841315 -0.09111568 0.09730188 -0.09655659 -0.064921305 0.20813562 -0.15424241 0.14069234
-0.0336557 0.15916353 0.18030624 0.019086195 -0.041733168 0.14266111 0.064061195 0.03864232
0.14062606 0.0017280458 0.0832215 -0.036532227 0.007332024 0.028213099 -0.026877277 0.17818776
0.109249584 0.119908005 -0.051695056 0.17395811 0.10915452 0.16076942 -0.00032310505 -0.15140577
-0.113861054 0.02294819 -0.10381335 0.09004017 -0.13490307 -0.11801075 -0.14676362 0.14695132
0.15738164 -0.15526773 -0.13658544 0.019475875 -0.03997429 -0.13522394 0.048916794 -0.16093157
-0.0049767024 0.071395755 0.20133305 -0.13524544 0.11582359 -0.028243888 0.13154644 0.18730825
-0.072447166 0.0027276382 -0.05167464 0.15464996 -0.08748453 0.12239198 0.06731354 0.18764012
0.13143978 0.0930899 -0.15970984 -0.072470665 -0.148929 0.11374979 0.018233575 0.06687314
0.06042646 0.0362487 0.107991695 -0.1379754 0.10368289 -0.245767 -0.07935142 0.068911955
0.15752144 -0.06933162 0.19695604 -0.057044286 -0.19788647 0.02733247 0.09964677 -0.11948741
0.19415542 -0.0482393 -0.024740627 -0.06182875 -0.09064424 0.19839999 -0.080908395 -0.097372755
-0.0378245 0.20277798 0.040895574 0.09644993 -0.05796409 0.12078734 0.023493141 0.16584267
0.088195585 0.10888295 0.13563581 0.04639373 -0.20302355 0.05506894 -0.11907016 0.009146756
-0.0258917 0.17464696 -0.10488372 -0.16705462 0.055109534 0.11480205 -0.02624183 0.00079111906
0.12941153 0.008071778 -0.029816642 0.16220978 0.17426102 -0.015936466 0.12665989 -0.014279857
-0.07019876 -0.05781483 -0.18119359 0.076649345 -0.037451148 -0.15849574 -0.015238709 -0.09621575
-0.098731525 -0.09700245 -0.022892227 0.05531417 0.027153976 -0.037771117 0.017964771 -0.15992504
00000000: e5c4 833d 6b17 5fbe d177 043e 3058 a5bd
00000010: 14f0 1ebc 7832 bebc 4829 093e 27b3 c13c
00000020: e555 66bd 3231 38bd cd51 c63c 8e22 15be
00000030: f018 063e 6076 10be f53f 163b 9251 19be
00000040: 26cf e03c 9155 9dbd 4297 94bd c0b4 023e
00000050: de28 1bbe a33d a13c f889 063d 3775 dfbd
00000060: 1498 a53d 1fc6 093e adbd 543d 4a4f 173d
00000070: c4f6 f43d 839b 56bd 0c15 40be dfbe 0d3e
00000080: 8a26 95bd a276 433d c4e4 c4b9 692c 1b3e
00000090: 5794 433e d8dc 0abe 5e6c 103d 3291 24be
000000a0: 296b eb3d 71b9 583e 7133 9cbc f788 15bc
000000b0: f738 efba 0074 debd a0b5 063e cfd1 2cbe
000000c0: f8ae 28bd 6b68 c33c 28cc 19be f4c0 a33d
000000d0: ad3a 053e 4c73 f7bd 91a1 9b3d eeb4 3fbc
000000e0: 9838 6e3e 67a3 3abe 9fbc 293e 587d 2bbd
000000f0: 41e7 3b3e a10f 0cbe 67dc a43d a1be e13d
00000100: 048a 133e e11a c53d a851 013e 7ff9 27bd
00000110: ff8d 0abe bf51 09bd 6a6e 1e3e bcbb 233e
00000120: 6fda 9abd 75bf 263e 6b52 8b3d 843d 98bc
00000130: 7137 943c 581e 48bc 4ffa 7c3d 3854 41bd
00000140: 12a1 893b 395a 333e bda1 f23d 8aca 10be
00000150: e27e 85bc 52bb 0a3e 056e 3abd 5217 43bc
00000160: 3fa3 b43d 6f3f f53d 70c9 343e a9c0 69be
00000170: c563 54be 30f3 1e3e 1dad e03c e5a0 413e
00000180: b7cc d03d 4bcd 81bd 4560 af3d b26e cd3d
00000190: 6ddc 7ebd 44ef 4a3e f5f7 bb3c 70e6 a9bd
000001a0: d3ed 39be af56 d83d ceff 3dbe 3fa9 1f3e
000001b0: 82ae 37bd c480 97bd 8ee3 0e3d 8b8a 593e
000001c0: 5d6f f5bd dc9a babd 3546 c73d 76bf c5bd
000001d0: 76f5 84bd 8121 553e b9f1 1dbe a711 103e
000001e0: 8fda 09bd c4fb 223e 33a2 383e a75a 9c3c
000001f0: 66f0 2abd c115 123e 8432 833d 6947 1e3d
00000200: 4700 103e 987f e23a 0970 aa3d d1a2 15bd
00000210: 7a41 f03b 281f e73c bc2d dcbc da76 363e
00000220: 3fbe df3d 5492 f53d 32be 53bd 1322 323e
00000230: 688c df3d bda0 243e 6d66 a9b9 1d0a 1bbe
00000240: fc2f e9bd d8fd bb3c 189c d4bd fb66 b83d
00000250: 0824 0abe 9faf f1bd 3449 16be 687a 163e
00000260: a728 213e 81fe 1ebe 0edd 0bbe df8b 9f3c
00000270: 15bc 23bd 2578 0abe fa5c 483d 3fcb 24be
00000280: 9b13 a3bb f037 923d 402a 4e3e c87d 0abe
00000290: eb34 ed3d ba5f e7bc 1cb4 063e bccd 3f3e
000002a0: 2e5f 94bd 2dc2 323b caa8 53bd 8f5c 1e3e
000002b0: 172b b3bd a5a8 fa3d aedb 893d bb24 403e
000002c0: 2698 063e eba5 be3d fa8a 23be 806b 94bd
000002d0: d880 18be a6f5 e83d 945e 953c c9f4 883d
000002e0: bc81 773d 8479 143d c02a dd3d 6c49 0dbe
000002f0: b257 d43d 58aa 7bbe ff82 a2bd b621 8d3d
00000300: 4d4d 213e bdfd 8dbd d8ae 493e 45a7 69bd
00000310: c0a2 4abe 58e8 df3c 9b13 cc3d d1b5 f4bd
00000320: aed0 463e 9296 45bd dbac cabc 2540 7dbd
00000330: b0a3 b9bd 5e29 4b3e 4db3 a5bd 5e6b c7bd
00000340: dded 1abd 08a5 4f3e 1e82 273d 8a87 c53d
00000350: c16b 6dbd 5a5f f73d b074 c03c a9d2 293e
00000360: e39f b43d 06fe de3d 1de4 0a3e 5a07 3e3d
00000370: 68e5 4fbe f88f 613d 0edb f3bd 46dc 153c
00000380: d51a d4bc a7d6 323e 47cd d6bd 5e10 2bbe
00000390: 89ba 613d 561d eb3d 1bf9 d6bc 1a63 4f3a
000003a0: 7584 043e 7e3f 043c 0842 f4bc 521a 263e
000003b0: 7b71 323e 318d 82bc 21b3 013e 10f6 69bc
000003c0: 5ec4 8fbd 3ecf 6cbd d08a 39be 55fa 9c3d
000003d0: 6066 19bd b54c 22be c7ab 79bc c30c c5bd
000003e0: c133 cabd 38a9 c6bd 7b88 bbbc 1c91 623d
000003f0: 0472 de3c e3b5 1abd db2a 933c 64c3 23be

ln1.weight f4 [256]
0.96107006 1.0539101 0.97068423 0.99656904 0.9583959 1.0337274 0.95942634 1.0291736
1.0241809 1.003874 1.0033902 1.0037918 1.0092582 1.0175952 0.9996501 1.044975
0.9801666 1.0145272 1.0433593 1.01325 1.0139564 1.0668375 1.0116602 0.99985826
0.9884665 0.9898679 1.0066013 1.0124975 0.9881684 1.0114625 1.0342636 0.9767871
1.0173974 0.9913288 1.01064 0.9835235 0.97481066 1.0487751 0.994043 1.0877098
0.96283656 0.98695934 1.0216806 0.983247 1.014939 0.99308866 0.9996888 1.0293858
1.017917 0.9737265 1.0187333 0.99899304 0.9792172 1.0318729 0.9872098 0.9907413
0.9742941 1.0062801 1.0049518 1.0129126 0.9617767 1.0914514 1.0565145 0.9968544
0.9881632 0.98317534 0.96906334 1.001355 1.0172786 1.0368265 0.96085745 0.9570297
1.0024223 0.98214734 0.9642236 1.0285888 0.97236913 0.9874414 1.0058857 1.0219716
1.0006725 0.992619 0.97886825 1.0053425 1.0054356 0.9851843 1.0265752 0.99366224
0.98581165 0.9661238 1.009614 1.0231881 1.0770725 0.9859701 0.9816394 0.9853532
0.9655959 1.0091476 0.99065083 0.9992415 1.0305145 0.9664983 0.9890188 1.047104
1.0020941 0.98273057 1.0341212 0.95805985 1.0064226 0.97456056 0.979573 0.9765484
1.0035545 1.0200868 0.98249936 1.0195227 1.0339746 0.98627365 1.0344559 0.9763234
0.99931586 1.0050673 0.9720856 1.0103401 1.0069026 0.9969554 0.9664148 1.0105283
0.97165066 1.0438515 1.0032495 1.0105081 1.0319338 1.0005679 1.0242118 0.99340725
1.0061013 0.9667536 1.0177433 0.94068563 0.976695 0.97902256 1.0311685 1.0349725
1.0062712 0.98763245 1.0238565 1.0016617 1.0378071 1.0249802 1.0023078 0.9684863
0.9788366 1.0322865 1.0014689 0.99796414 1.0197138 1.0143057 1.0242373 1.0234474
0.98844814 1.0224714 0.98216295 1.0419302 0.96134037 0.99912924 0.92051065 0.97412515
0.99135196 0.99358016 1.0166266 0.97796994 1.0787545 1.0036973 0.963962 1.0077734
0.9438295 0.95991033 1.0531209 1.0184941 1.0288025 0.98017544 0.9972873 1.0153645
0.9897732 1.0014905 1.004808 1.0171653 0.996129 1.0291255 1.0114434 0.9939254
0.9499063 1.0049953 0.97698796 1.037241 1.0329942 1.0558672 0.9865266 0.9811805
0.97748274 1.0288943 1.0041023 1.0205246 1.0024407 0.97158426 1.0079757 1.0456934
0.99743736 1.0115254 1.0051006 1.005393 1.016092 0.9781333 1.0031195 0.98643374
0.98803014 1.0001688 1.0060205 0.99187875 1.0196114 0.973266 0.99467826 0.9975258
1.0024099 1.0040197 1.022985 1.0352263 0.9754288 0.999433 1.0076424 0.9980858
0.96588594 1.0043616 0.98096627 1.018051 0.9841041 1.0075269 0.9669883 0.97692907
0.9970693 1.0075598 1.018848 0.9901037 1.0076782 1.0312263 0.98464566 0.99765784
1.0418421 1.0228779 0.9995964 0.9867393 1.0126747 0.997059 1.0198852 1.0189682
00000000: b008 763f 87e6 863f c37e 783f 261f 7f3f
00000010: 6f59 753f 2e51 843f f79c 753f f6bb 833f
00000020: 5c18 833f f17e 803f 176f 803f 407c 803f
00000030: 5f2f 813f 8f40 823f 12e9 7f3f bec1 853f
00000040: 33ec 7a3f 07dc 813f cc8c 853f 2db2 813f
00000050: 53c9 813f 228e 883f 157e 813f b6f6 7f3f
00000060: 240c 7d3f fc67 7d3f 50d8 803f 8599 813f
00000070: 9bf8 7c3f 9a77 813f c062 843f b80e 7a3f
00000080: 143a 823f b9c7 7d3f a75c 813f 32c8 7b3f
00000090: 318d 793f 433e 863f 9a79 7e3f 133a 8b3f
000000a0: 757c 763f 5ea9 7c3f 6ec6 823f 13b6 7b3f
000000b0: 85e9 813f 0f3b 7e3f 9beb 7f3f eac2 833f
000000c0: 1b4b 823f 2446 793f da65 823f 02be 7f3f
000000d0: faad 7a3f 6914 843f c8b9 7c3f 39a1 7d3f
000000e0: 576b 793f c9cd 803f 43a2 803f 1fa7 813f
000000f0: ff36 763f aeb4 8b3f de3b 873f da31 7f3f
00000100: 43f8 7c3f 61b1 7b3f 8914 783f 672c 803f
00000110: 2f36 823f bbb6 843f c1fa 753f e6ff 743f
00000120: 604f 803f 026e 7b3f 5cd7 763f cca8 833f
00000130: 2fed 783f f6c8 7c3f ddc0 803f f7cf 823f
00000140: 0916 803f 471c 7e3f 1c97 7a3f 10af 803f
00000150: 1db2 803f 0a35 7c3f d166 833f a660 7e3f
00000160: 275e 7c3f e453 773f 083b 813f d4f7 823f
00000170: 83dd 893f 8968 7c3f b84c 7b3f 1b40 7c3f
00000180: 4b31 773f c02b 813f 4b9b 7d3f 4ace 7f3f
00000190: e6e7 833f 6f6c 773f 5630 7d3f 8107 863f
000001a0: 9f44 803f 3b94 7b3f 155e 843f 6943 753f
000001b0: 75d2 803f cd7c 793f 4cc5 7a3f 13ff 793f
000001c0: 7974 803f 3492 823f 1485 7b3f b87f 823f
000001d0: 4859 843f 6e7c 7c3f 0d69 843f 55f0 793f
000001e0: 2ad3 7f3f 0ca6 803f 9ada 783f d352 813f
000001f0: 2fe2 803f 7838 7f3f f666 773f fe58 813f
00000200: 19be 783f ed9c 853f 7b6a 803f 5458 813f
00000210: 6816 843f 9c12 803f 5f19 833f f04f 7e3f
00000220: edc7 803f 2a7d 773f 6a45 823f c6d0 703f
00000230: af08 7a3f 39a1 7a3f 54fd 833f fb79 843f
00000240: 7fcd 803f 7bd5 7c3f bb0d 833f 7336 803f
00000250: ddd6 843f 8d32 833f 9f4b 803f b8ee 773f
00000260: 0995 7a3f f721 843f 2230 803f 947a 7f3f
00000270: fb85 823f c5d4 813f 351a 833f 5300 833f
00000280: f00a 7d3f 58e0 823f 086f 7b3f f85d 853f
00000290: 671a 763f efc6 7f3f 96a6 6b3f 4460 793f
000002a0: 3ec9 7d3f 455b 7e3f d220 823f 3d5c 7a3f
000002b0: a114 8a3f 2779 803f 37c6 763f b8fe 803f
000002c0: cf9e 713f afbc 753f aacc 863f 045e 823f
000002d0: cdaf 833f c7ec 7a3f 384e 7f3f 77f7 813f
000002e0: c761 7d3f d730 803f 8c9d 803f 7932 823f
000002f0: 4f02 7f3f 62ba 833f fa76 813f e571 7e3f
00000300: 0f2d 733f b0a3 803f e21b 7a3f 50c4 843f
00000310: 2739 843f a826 873f 028d 7c3f a52e 7b3f
00000320: 4f3c 7a3f cfb2 833f 6d86 803f 8da0 823f
00000330: fa4f 803f bfb9 783f 5905 813f 48d9 853f
00000340: 0e58 7f3f aa79 813f 23a7 803f b8b0 803f
00000350: 4d0f 823f f266 7a3f 3866 803f ec86 7c3f
00000360: 8bef 7c3f 8805 803f 48c5 803f c4eb 7d3f
00000370: a082 823f f627 793f 3ca3 7e3f da5d 7f3f
00000380: f84e 803f b883 803f 2cf1 823f 4c82 843f
00000390: b4b5 793f d7da 7f3f 6dfa 803f 8d82 7f3f
000003a0: 4d44 773f ec8e 803f 9b20 7b3f 7f4f 823f
000003b0: 3fee 7b3f a4f6 803f 8c8c 773f 0618 7a3f
000003c0: ef3f 7f3f b8f7 803f 9c69 823f 7077 7d3f
000003d0: 99fb 803f 39ff 833f bd11 7c3f 8166 7f3f
000003e0: 155b 853f aaed 823f 8de5 7f3f f29a 7c3f
000003f0: 539f 813f 423f 7f3f 998b 823f 8d6d 823f

ln1.bias f4 [256]
-0.045616254 -0.06290394 -0.04602532 -0.02253562 -0.06345376 -0.07576138 -0.035951667 -0.017616045
-0.026963484 -0.053793848 -0.028913578 -0.03306815 -0.06567538 -0.007689305 -0.036876183 -0.013743915
-0.058359154 -0.043528732 -0.040852636 -0.014632913 0.00073398906 -0.035860606 -0.051669944 -0.03599984
-0.079446785 -0.031913944 -0.025650742 -0.015384858 -0.019237176 -0.012472303 -0.035350904 -0.060732543
-0.047728617 -0.028486177 -0.05016108 -0.044888806 -0.03992259 -0.020557228 -0.03176703 -0.09310071
-0.050446257 -0.02849002 -0.030169148 -0.06691531 -0.029679073 -0.052871138 -0.043845434 -0.020600539
-0.024705807 -0.040792394 -0.0012215332 -0.06052774 -0.02800083 0.0006644102 -0.04871698 -0.012250405
-0.022577424 -0.047718145 -0.044735402 -0.030220423 -0.045036413 -0.08167763 -0.055439718 -0.018083844
-0.052053634 -0.06167196 -0.04965096 -0.038256526 -0.0455675 -0.07551985 -0.064305544 -0.074123554
-0.04335036 -0.024149062 -0.064770415 -0.005442318 -0.06460765 -0.05112889 -0.037360985 -0.029868824
-0.061676692 -0.05511747 -0.06952403 -0.011701309 -0.03594636 -0.03956746 -0.010892762 -0.06297634
-0.08151911 -0.07318761 -0.03282178 -0.037191726 -0.028046446 -0.043356832 -0.026474284 -0.012153988
-0.083649546 -0.016068622 -0.058118563 -0.027513202 -0.0088442555 -0.033950724 -0.041013446 -0.10665979
-0.012836479 -0.079127155 -0.014011121 -0.063945904 -0.050169893 -0.072049096 -0.0387486 -0.031064294
-0.04321899 -0.015266106 -0.052795693 -0.039901417 -0.011381682 -0.036501087 -0.042770565 -0.032762825
-0.0023339519 -0.050532743 -0.026565785 -0.013518009 -0.05185639 -0.043070488 -0.078612104 -3.2628952e-05
-0.07317121 -0.041427616 -0.04366899 -0.052898817 -0.06924687 -0.007579803 -0.06089497 0.0074722343
-0.052974652 -0.044372186 -0.0052496903 -0.0520705 -0.064914286 0.0065161176 -0.06438981 -0.042726476
-0.029086217 -0.02387294 -0.012283944 -0.011737275 0.0051580775 -0.041225467 -0.042864677 -0.05923508
-0.0475724 -0.029242791 -0.031389855 -0.029468287 -0.03530434 -0.030321494 -0.004949197 -0.04079559
-0.046724677 -0.049201746 -0.03248739 -0.0051926128 -0.06699514 -0.065877095 -0.05797684 -0.05209567
-0.033416886 -0.0350043 -0.031525467 -0.047421854 -0.06980394 -0.053419 -0.043270294 -0.056997437
-0.06682619 -0.078108326 -0.01402725 0.0010342215 0.01836179 -0.038121846 -0.066223025 -0.0586679
-0.077014014 -0.036943275 -0.022256477 -0.032558315 -0.106439516 -0.041121203 -0.02367079 -0.015201168
-0.07031135 -0.05368551 -0.021195037 -0.02780213 -0.041249074 0.008448846 -0.05318974 -0.05963969
-0.05857193 0.022857292 -0.05428911 -0.00262011 -0.012607133 -0.04756996 -0.030540088 -0.029062184
-0.0042578927 -0.03149917 -0.099692695 -0.022475202 -0.045720067 -0.012775426 -0.045833085 -0.04453361
-0.027352748 -0.060464993 -0.058768608 -0.045848798 -0.01588672 -0.056873742 -0.033902 -0.059184354
-0.03154379 -0.03902078 -0.029094758 -0.035100084 -0.06423621 -0.06976939 -0.04618118 -0.08326853
-0.07716955 -0.010354392 -0.02719995 -0.038604975 -0.07136912 -0.032751758 -0.068607755 -0.072596356
-0.06373036 -0.061412573 -0.020997424 -0.04397756 -0.00849516 0.014130456 -0.02302935 -0.049636517
-0.043508116 -0.061939538 -0.035589404 -0.049419712 -0.01459909 -0.08138764 -0.016776696 -0.06014123
00000000: 1cd8 3abd c8d3 80bd 0c85 3cbd 9f9c b8bc
00000010: 0cf4 81bd c828 9bbd 0e42 13bd 864f 90bc
00000020: 86e2 dcbc f056 5cbd 2bdc ecbc 7872 07bd
00000030: d080 86bd 91f6 fbbb 7b0b 17bd 282e 61bc
00000040: 020a 6fbd 2f4b 32bd 1855 27bd e3be 6fbc
00000050: 2c69 403a 92e2 12bd dda3 53bd 9174 13bd
00000060: ffb4 a2bd 32b8 02bd 8121 d2bc c510 7cbc
00000070: 4897 9dbc a158 4cbc 1ccc 10bd b0c2 78bd
00000080: 157f 43bd d85b e9bc b475 4dbd 53dd 37bd
00000090: df85 23bd a267 a8bc 251e 02bd 96ab bebd
000000a0: bca0 4ebd e763 e9bc 4a25 f7bc e50a 89bd
000000b0: 8721 f3bc 688f 58bd 4597 33bd 76c2 a8bc
000000c0: d563 cabc ed15 27bd da1b a0ba efeb 77bd
000000d0: ff61 e5bc d02b 2e3a 758b 47bd ecb5 48bc
000000e0: 4af4 b8bc 1a74 43bd 783c 37bd d290 f7bc
000000f0: 1a78 38bd 9a46 a7bd c214 63bd 9224 94bc
00000100: 3136 55bd bd9b 7cbd ce5e 4bbd e0b2 1cbd
00000110: fda4 3abd 27aa 9abd a0b2 83bd 17ce 97bd
00000120: 2690 31bd 41d4 c5bc 5aa6 84bd 7955 b2bb
00000130: 0451 84bd 876c 51bd d507 19bd 77af f4bc
00000140: b3a0 7cbd dbc2 61bd 9d62 8ebd d9b6 3fbc
00000150: 7e3c 13bd 7d11 22bd 8e77 32bc bdf9 80bd
00000160: 7ef3 a6bd 63e3 95bd 2170 06bd 5a56 18bd
00000170: a9c1 e5bc ef96 31bd 99e0 d8bc 8521 47bc
00000180: 7450 abbd 58a2 83bc bb0d 6ebd 5e63 e1bc
00000190: 7fe7 10bc ea0f 0bbd b7fd 27bd 7370 dabd
000001a0: 1850 52bc 6b0d a2bd e78e 65bc 12f6 82bd
000001b0: f27e 4dbd 7a8e 93bd dab6 1ebd 8c7a febc
000001c0: 6506 31bd b11e 7abc 4c40 58bd ab6f 23bd
000001d0: 3c7a 3abc 2a82 15bd 3030 2fbd 5032 06bd
000001e0: 37f5 18bb 6cfb 4ebd 7da0 d9bc a47a 5dbc
000001f0: 5e67 54bd ae6a 30bd 62ff a0bd 12db 08b8
00000200: cada 95bd 01b0 29bd 41de 32bd 6eac 58bd
00000210: 4ed1 8dbd ff5f f8bb 016d 79bd a5d9 f43b
00000220: f3fb 58bd 9cbf 35bd 9805 acbb e047 55bd
00000230: c8f1 84bd 2885 d53b cede 83bd f501 2fbd
00000240: 3846 eebc 2f91 c3bc 9842 49bc b34d 40bc
00000250: 1705 a93b 09dc 28bd df92 2fbd 7ca0 72bd
00000260: 47db 42bd 948e efbc a692 00bd 7a67 f1bc
00000270: 499b 10bd c864 f8bc e02c a2bb 4719 27bd
00000280: 6062 3fbd c587 49bd 7f11 05bd cb26 aabb
00000290: bf34 89bd 92ea 86bd 1f79 6dbd 4562 55bd
000002a0: 25e0 08bd ab60 0fbd d920 01bd 6b3d 42bd
000002b0: 5ef5 8ebd e2cd 5abd 313c 31bd 2576 69bd
000002c0: 2bdc 88bd 42f7 9fbd 8dd2 65bc b78e 873a
000002d0: 776b 963c a725 1cbd f09f 87bd c04d 70bd
000002e0: 86b9 9dbd d551 17bd 3753 b6bc de5b 05bd
000002f0: f6fc d9bd b56e 28bd 3fe9 c1bc 520e 79bc
00000300: 66ff 8fbd 56e5 5bbd 37a1 adbc 4bc1 e3bc
00000310: caf4 28bd 076d 0a3c 7cdd 59bd bf48 74bd
00000320: 1fe9 6fbd 373f bb3c 425e 5ebd 27b6 2bbb
00000330: 268e 4ebc b8d8 42bd 352f fabc d113 eebc
00000340: cb85 8bbb 4605 01bd af2b ccbd ea1d b8bc
00000350: f744 3bbd 0550 51bc 79bb 3bbd e068 36bd
00000360: df12 e0bc 24aa 77bd 5ab7 70bd f3cb 3bbd
00000370: de24 82bc 71f4 68bd d3dc 0abd 4b6b 72bd
00000380: 1034 01bd 41d4 1fbd 2158 eebc 1bc5 0fbd
00000390: 468e 83bd 41e3 8ebd 7a28 3dbd b188 aabd
000003a0: 120b 9ebd 78a5 29bc 6ed2 debc 4020 1ebd
000003b0: f929 92bd b526 06bd 3982 8cbd 66ad 94bd
000003c0: 1085 82bd c08b 7bbd ca02 acbc d021 34bd
000003d0: 492f 0bbc 6e83 673c 0ca8 bcbc a94f 4bbd
000003e0: 9135 32bd 50b4 7dbd 32c6 11bd 536c 4abd
000003f0: 0631 6fbc 90ae a6bd 486f 89bc a656 76bd

fc2.weight f4 [256, 256]
0.05661597 0.033791915 0.035783123 -0.09113133 0.048114013 -0.002495066 -0.05429405 0.06934494
-0.00901368 -0.010450928 0.048868988 0.01712938 0.07612083 -0.058143873 0.0777599 0.012293854
0.008355848 -0.06931227 -0.008880516 0.04165889 0.05879794 0.10003265 -0.0050462633 -0.027955279
0.051129397 -0.0042422814 -0.017588988 0.009450153 0.06413607 -0.03400834 -0.036170814 -0.013472153
-0.060454257 -0.032180592 0.0038007286 -0.00959192 -0.011895705 0.01087765 0.042237695 0.035955876
-0.03374677 -0.033245847 0.0765806 0.013078775 -0.05799825 -0.017837496 0.03350771 -0.0025800494
-0.00446163 0.030196942 0.033034492 0.04878058 -0.043381497 0.025433581 0.037739318 -0.0023046904
-0.03756184 -0.052756835 0.096239135 0.030167244 -0.0014806143 -0.04296959 0.09425089 -0.008495907
0.02413137 0.0055629276 0.025729517 0.025309257 -0.0030500903 -0.026998585 0.028278343 -0.06311793
0.0073435428 -0.0044706827 0.08247743 0.000700555 -0.086357705 -0.041899912 0.04998814 -0.008225626
0.057708565 -0.0030914757 0.04416967 -0.042963814 0.061490487 0.018218935 -0.027451726 0.038356274
0.03766433 -0.03252561 0.0064491704 0.054179735 -0.009385883 -0.0018107101 -0.036746107 -0.04980497
0.033832375 -0.026189005 -0.049432624 -0.021276124 0.020837616 -0.03829065 0.048793446 0.029369753
-0.032804977 0.026766332 0.058189157 0.014173044 0.036599733 0.036728248 -0.03383409 -0.007791374
0.021295927 -0.04069783 -0.018913409 0.011359525 -0.062708914 -0.026814997 0.020450365 -0.04226973
0.06330759 0.056588095 0.04168685 0.06897836 0.03783045 0.07399957 0.04155971 -0.032225825
-0.045163635 0.030933695 -0.0172124 0.0058515575 0.015234212 0.019363122 -0.038649254 0.03539748
-0.0022802316 -0.05777968 -0.049568586 -0.0033820746 0.05217128 -0.049843606 -0.002689755 0.04184977
-0.014145815 0.0012452296 -0.04975999 -0.0072131003 0.03330557 -0.040195197 0.038370267 0.062363476
0.0056123026 -0.042399697 0.016464991 0.007398322 -0.00109056 -0.00017935493 -0.04148824 -0.091219194
0.025662282 -0.006774566 -0.0070626554 0.004994823 -0.059518114 0.01893536 -0.0155214565 -0.061834965
0.023715686 -0.06663878 -0.030175263 -0.005882157 -0.026872117 0.06319778 0.037157137 -0.007905183
-0.040812287 0.022379324 0.029514931 0.02885607 -0.0038263507 -0.058641672 0.016525658 0.0055553224
0.0011808005 0.0037147934 0.026858155 -0.0021674002 -0.052437373 -0.07397948 0.050589066 0.040626172
-0.023574475 0.075896785 0.040071566 -0.0029382946 -0.067789316 -0.03590498 0.06687534 -0.047806215
-0.008202463 0.10267689 -0.05728164 0.028438846 -0.009939226 0.04642452 0.0536991 0.017145045
0.036586937 0.025015121 -0.012799474 -0.040391326 -0.08072676 -0.04212107 0.014675069 -0.034944464
0.046237692 0.031040633 0.011722023 -0.018105531 -0.0013769909 -0.032418817 0.062194973 -0.044675507
0.04510949 -0.019764192 -0.060881253 -0.092835985 -0.046562195 -0.03482814 0.052990075 -0.014167916
-0.07186603 -0.066396065 -0.041807543 -0.021289416 0.07592108 -0.018896466 -0.06410462 -0.018999457
0.073903255 -0.06660294 -0.015848344 0.04987975 0.015408209 -0.036374703 -0.0076522967 0.017868249
-0.0019552952 -0.049230866 0.008605065 -0.04444033 -0.0036057765 0.056167822 0.046597492 0.03394917
00000000: 26e6 673d 6469 0a3d 5391 123d 10a3 babd
00000010: 3313 453d 4384 23bb 7063 5ebd b804 8e3d
00000020: 1dae 13bc 5e3a 2bbc d92a 483d ea52 8c3c
00000030: 3de5 9b3d 4528 6ebd 9540 9f3d 296c 493c
00000040: f7e6 083c 97f3 8dbd 957f 11bc 83a2 2a3d
00000050: 1cd6 703d ebdd cc3d 205b a5bb 7802 e5bc
00000060: 0f6d 513d d602 8bbb c816 90bc d1d4 1a3c
00000070: c659 833d 544c 0bbd d927 14bd 4eba 5cbc
00000080: e29e 77bd cccf 03bd a515 793b 6e27 1dbc
00000090: 34e6 42bc 2c38 323c 6f01 2d3d 7846 133d
000000a0: 0e3a 0abd cc2c 08bd 4ad6 9c3d 5c48 563c
000000b0: 938f 6dbd f11f 92bc 613f 093d 0c16 29bb
000000c0: dd32 92bb 945f f73c 2d4f 073d 25ce 473d
000000d0: ccb0 31bd 165a d03c 8b94 1a3d 4a0a 17bb
000000e0: 72da 19bd 8d17 58bd 0619 c53d 4c21 f73c
000000f0: 2c11 c2ba e100 30bd 9c06 c13d 6b32 0bbc
00000100: 27af c53c 3849 b63b b5c6 d23c 5c55 cf3c
00000110: 06e4 47bb 232c ddbc fca7 e73c f943 81bd
00000120: 1aa2 f03b ce7e 92bb ede9 a83d 73a5 373a
00000130: 4fdc b0bd 3e9f 2bbd 5dc0 4c3d c7c4 06bc
00000140: d15f 6c3d 5b9a 4abb 42eb 343d d3fa 2fbd
00000150: 73dd 7b3d e03f 953c 71e2 e0bc 781b 1d3d
00000160: ea45 1a3d 9339 05bd 9053 d33b 92eb 5d3d
00000170: 3fc7 19bc 5955 edba 1683 16bd 4c00 4cbd
00000180: d193 0a3d 538a d6bc dd79 4abd 444b aebc
00000190: a6b3 aa3c a8d6 1cbd a3db 473d d698 f03c
000001a0: 835e 06bd 1145 db3c c157 6e3d 0e36 683c
000001b0: 9ae9 153d 5c70 163d 9d95 0abd c84e ffbb
000001c0: cc74 ae3c c5b2 26bd 4bf0 9abc 4d1d 3a3c
000001d0: 886d 80bd 20ab dbbc 8687 a73c 0623 2dbd
000001e0: 69a7 813d ebc8 673d d5bf 2a3d 8744 8d3d
000001f0: 1af4 1a3d 168d 973d 843a 2a3d 3aff 03bd
00000200: 81fd 38bd a968 fd3c 0501 8dbc 6cbe bf3b
00000210: eb98 793c 699f 9e3c ae4e 1ebd f3fc 103d
00000220: f06f 15bb 63aa 6cbd 6e08 4bbd cca5 5dbb
00000230: 8db1 553d cf28 4cbd 9a46 30bb aa6a 2b3d
00000240: d9c3 67bc f936 a33a 22d1 4bbd df5b ecbb
00000250: 6c6b 083d b8a3 24bd 242a 1d3d d870 7f3d
00000260: 68e7 b73b 4eab 2dbd 97e1 863c a06d f23b
00000270: 1ff1 8eba 3911 3cb9 93ef 29bd 21d1 babd
00000280: b539 d23c 2efd ddbb d96d e7bb 9dab a33b
00000290: 44c9 73bd 541e 9b3c b54d 7ebc a946 7dbd
000002a0: 6647 c23c ea79 88bd 1d32 f7bc 1cbf c0bb
000002b0: ea22 dcbc d66d 813d 1532 183d be84 01bc
000002c0: c92a 27bd d854 b73c 4cc9 f13c 9163 ec3c
000002d0: 83c3 7abb 4032 70bd d160 873c 6c09 b63b
000002e0: 17c5 9a3a e473 733b a205 dc3c f10a 0ebb
000002f0: 92c8 56bd 8e82 97bd 7b36 4f3d a167 263d
00000300: 421f c1bc c66f 9b3d 1522 243d 6790 40bb
00000310: 20d5 8abd 1a11 13bd f0f5 883d 73d0 43bd
00000320: a063 06bc 4348 d23d 27a0 6abd 95f8 e83c
00000330: 23d8 22bc a327 3e3d 96f3 5b3d c473 8c3c
00000340: 2fdc 153d 83ec cc3c e3b4 51bc 6071 25bd
00000350: 1254 a5bd 2587 2cbd b36f 703c ed21 0fbd
00000360: bc63 3d3d ed48 fe3c ba0d 403c 0d52 94bc
00000370: 267c b4ba 98c9 04bd 28c0 7e3d aafd 36bd
00000380: bbc4 383d 84e8 a1bc 9f5e 79bd cb20 bebd
00000390: 00b8 3ebd f4a7 0ebd 1f0c 593d 8c20 68bc
000003a0: 7f2e 93bd a9fa 87bd 633e 2bbd 2467 aebc
000003b0: 837c 9b3d c3cc 9abc 4849 83bd c0a4 9bbc
000003c0: 975a 973d 1f67 88bd 63d4 81bc b54e 4c3d
000003d0: b672 7c3c a4fd 14bd 1ec0 fabb 6f60 923c
000003e0: 6924 00bb 4ea6 49bd 42fc 0c3c 1007 36bd
000003f0: e44e 6cbb 3b10 663d 03dd 3e3d 490e 0b3d

fc2.bias f4 [256]
0.03721928 -0.045138225 0.018086087 0.019684035 0.058015954 0.0631751 0.059634678 -0.034006394
-0.015239966 -0.04847501 -0.04840702 -0.06465098 0.036487546 0.021193583 0.033910394 0.06145315
-0.043781005 -0.04087367 0.02350611 0.009635649 0.012168056 -0.02217356 -0.01696942 0.040484883
0.019134996 0.02023269 -0.049400613 -0.049503528 -0.025732242 0.0049239714 0.055719007 0.00784414
0.049185496 -0.0367881 -0.0019278987 -0.027707746 -0.05645005 0.062235568 0.06402256 -0.011083589
0.01642655 0.05495428 0.050934974 -0.056615222 0.01274267 -0.033160746 -0.009733461 0.0017007963
-0.023669995 0.011813525 0.064004235 0.015327419 0.035961963 -0.037710205 -0.05328419 0.02570658
-0.03655662 -0.031389616 0.012285922 0.019404119 -0.019636173 -0.0597912 -0.0043286174 -0.0058639073
0.025201231 -0.05216752 0.011523612 -0.04689744 0.03356812 0.057853904 -0.046002876 -0.052643396
-0.01672135 0.014105076 0.009772909 0.052481923 0.049100775 0.04048372 -0.0018792425 0.04174193
-0.0058244355 0.0038915265 0.06075686 0.022891037 -0.035257302 0.015143603 0.04699274 0.053538356
0.04241493 -0.004087717 0.025717795 -0.050150573 0.03791685 -0.032863658 -0.01187695 0.054767042
0.037755083 0.06199896 0.011918365 0.018325409 0.03463867 -0.0064516407 -0.017425852 -0.020950524
-0.0069121723 -0.0448142 -0.047902085 0.023614652 -0.0073695853 0.037386823 0.020019157 0.02059326
-0.022593198 0.0069979466 0.010261727 -0.0015793624 -0.041579362 0.0052055065 -0.030669527 0.045808513
0.01169699 0.017779363 -0.05670269 0.012609401 -0.019517954 0.026963295 -0.013371753 0.00074900285
0.065224566 -0.071272075 0.009419884 -0.050114665 -0.041082952 0.036880545 -2.7702938e-05 0.038909063
0.047693115 -0.005064542 -0.013345679 0.0061389864 -0.025941513 0.03142101 0.056389067 0.020320721
0.05680587 0.01157536 -0.017619694 -0.033996303 -0.022584546 -0.0023290834 0.03433933 -0.059586205
0.039252512 -0.046337184 -0.0420489 -0.032254282 0.013368468 0.043875977 0.07102592 0.021720568
-0.038464937 -0.053753775 -0.028303044 0.032663587 -0.004732447 0.04792412 0.008833453 -0.028384713
0.029665232 -0.024421284 -0.051757827 0.0424418 -0.03271319 -0.010443097 0.04923129 -0.043097537
0.05806606 -0.00524596 0.047495555 -0.0014195244 -0.03765891 0.052322414 0.048026606 0.05443463
0.053199284 -0.024949037 -0.0147420745 -0.03651752 0.057979282 -0.017424867 0.005852604 -0.021142611
-0.00043683138 0.006061642 -0.011555209 0.011227985 0.053453322 -0.05010119 0.05641832 0.0010240311
0.010981503 -0.048850987 0.030630253 -0.048877377 -0.038200375 -0.0527486 -0.044611864 0.014793988
0.055825297 -0.003913335 -0.033214897 0.031420376 -0.018214457 -0.047612473 -0.014165871 -0.012338245
-0.006815959 0.0073342496 -0.031751838 0.029746555 -0.0097010005 0.010535105 0.049446944 -0.017443743
0.00963318 0.040952995 -0.032469053 -0.02698655 -0.0117059965 -0.005940213 -0.052637517 -0.061113417
0.05372666 -0.034229167 -0.015919916 -0.03754241 0.036786307 0.029321784 -0.009960449 -0.016893597
-0.03093469 0.006481555 0.039166145 -0.0015947433 -0.027204636 -0.010889191 -0.050996978 -0.05267421
0.028824149 0.04980696 0.034121204 0.01053313 0.024691079 0.041774735 0.055089798 0.0339825
00000000: 3e73 183d dce2 38bd 4629 943c 6a40 a13c
00000010: 23a2 6d3d f261 813d 7e43 743d 4a4a 0bbd
00000020: 0db1 79bc bb8d 46bd 7046 46bd bc67 84bd
00000030: f773 153d 2a9e ad3c a0e5 0a3d 4cb6 7b3d
00000040: b653 33bd 266b 27bd e38f c03c d7de 1d3c
00000050: 875c 473c 53a5 b5bc 7403 8bbc 7ad3 253d
00000060: ffc0 9c3c 07bf a53c 4c58 4abd 36c4 4abd
00000070: 6ccc d2bc 4459 a13b 9d39 643d b584 003c
00000080: bb76 493d 1eaf 16bd 8cb1 fcba 5bfb e2bc
00000090: 2b38 67bd b9ea 7e3d 431e 833d f197 35bc
000000a0: f990 863c bd17 613d 31a1 503d 5de5 67bd
000000b0: a2c6 503c 90d3 07bd 1879 1fbc 41ed de3a
000000c0: 94e7 c1bc 848d 413c a714 833d db1f 7b3c
000000d0: da4c 133d 0476 1abd 8640 5abd 9b96 d23c
000000e0: 65bc 15bd 6692 00bd e44a 493c 63f5 9e3c
000000f0: 0adc a0bc 9ee7 74bd 13d7 8dbb 0526 c0bb
00000100: d072 ce3c 9cad 55bd 88cd 3c3c 8817 40bd
00000110: ba7e 093d 37f8 6c3d 836d 3cbd 9aa0 57bd
00000120: 36fb 88bc fa18 673c 8d1e 203c 49f7 563d
00000130: e51d 493d 42d2 253d ea50 f6ba 96f9 2a3d
00000140: e8da bebb fb08 7f3b 2fdc 783d fc85 bb3c
00000150: f669 10bd e01c 783c 767b 403d 094b 5b3d
00000160: 47bb 2d3d 41f2 85bb 20ae d23c b06a 4dbd
00000170: b34e 1b3d 0b9c 06bd 8a97 42bc 6853 603d
00000180: 13a5 1a3d 9ff2 7d3d 3f45 433c 2b1f 963c
00000190: 47e1 0d3d 4968 d3bb a9c0 8ebc 6fa0 abbc
000001a0: 817f e2bb 188f 37bd fa34 44bd 8473 c13c
000001b0: 907c f1bb ed22 193d 37ff a33c 32b3 a83c
000001c0: 5f15 b9bc 084f e53b cd20 283c 9c02 cfba
000001d0: 1f4f 2abd f492 aa3b a93e fbbc b5a1 3b3d
000001e0: bba4 3f3c 07a6 913c 1441 68bd a997 4e3c
000001f0: 1ee4 9fbc 21e2 dc3c 3215 5bbc bb58 443a
00000200: 7594 853d 18f7 91bd db55 1a3c 0945 4dbd
00000210: 9946 28bd 0e10 173d 9b63 e8b7 1c5f 1f3d
00000220: db59 433d 75f4 a5bb d6a7 5abc 8d29 c93b
00000230: 4c83 d4bc 51b3 003d 39f8 663d a477 a63c
00000240: 46ad 683d 94a6 3d3c 2d57 90bc b53f 0bbd
00000250: 3a03 b9bc 89a3 18bb 66a7 0c3d aa10 74bd
00000260: 3ec7 203d 0fcc 3dbd 783b 2cbd 111d 04bd
00000270: 6b07 5b3c 4cb7 333d 0a76 913d 55ef b13c
00000280: 698d 1dbd eb2c 5cbd c9db e7bc 41ca 053d
00000290: a512 9bbb 154c 443d 30ba 103c 0f87 e8bc
000002a0: 8004 f33c 250f c8bc 0400 54bd 74d7 2d3d
000002b0: 44fe 05bd 8619 2bbc c0a6 493d 0b87 30bd
000002c0: add6 6d3d 4de6 abbb b38a 423d 560f baba
000002d0: 3b40 1abd 0750 563d 8cb7 443d d9f6 5e3d
000002e0: 7ee7 593d ec61 ccbc be88 71bc 6593 15bd
000002f0: af7b 6d3d 98be 8ebc 33c7 bf3b 4533 adbc
00000300: 8406 e5b9 bda0 c63b 0f52 3dbc 95f5 373c
00000310: dff1 5a3d e836 4dbd e516 673d c838 863a
00000320: c3eb 333c f917 48bd 4cec fa3c a533 48bd
00000330: ff77 1cbd ea0e 58bd eeba 36bd 7c62 723c
00000340: 11a9 643d 6f3b 80bb 580c 08bd a7b2 003d
00000350: 7c36 95bc 4c05 43bd f817 68bc 5a26 4abc
00000360: 6858 dfbb 2554 f03b 370e 02bd 0caf f33c
00000370: f2f0 1ebc 6f9b 2c3c e188 4a3d 2ee6 8ebc
00000380: 7cd4 1d3c 54be 273d 45fe 04bd e612 ddbc
00000390: 82ca 3fbc 1ea6 c2bb 709a 57bd 1052 7abd
000003a0: 7c10 5c3d e233 0cbd 7c6a 82bc 12c6 19bd
000003b0: 3dad 163d 3d34 f03c 2731 23bc 7164 8abc
000003c0: bf6a fdbc 3963 d43b ae6c 203d b506 d1ba
000003d0: 42dc debc 9468 32bc 35e2 50bd eac0 57bd
000003e0: 9f20 ec3c 6202 4c3d adc2 0b3d 2693 2c3c
000003f0: f244 ca3c fc1b 2b3d d7a5 613d 3c31 0b3d

ln2.weight f4 [256]
1.1022601 1.0613068 1.0522934 1.1075194 1.1004987 1.0588682 1.022734 1.0174947
1.0177071 1.1370586 1.0366836 1.131454 1.1759154 1.2284932 1.1540185 1.0536585
1.0440391 1.290845 1.0432787 1.0425752 1.1919106 1.1619754 1.1744822 1.0297391
1.2405331 1.2049799 1.0599264 1.06729 1.1968312 1.0720819 1.0969387 1.081836
1.1582097 1.1178575 1.1462744 1.1123091 1.0252268 1.0686779 1.0776649 1.0759495
1.0633516 1.0986078 1.0660319 1.1045526 1.0237288 1.0624685 1.138358 1.1047853
1.1378632 1.0316949 1.0823845 1.0449169 1.023406 1.0130051 1.1493309 1.113318
1.122356 1.0477228 1.0655233 1.0302701 1.0827342 1.0820233 1.0895321 1.0244727
1.1361773 1.0769539 1.0021831 1.1143188 1.0794505 1.1529374 1.1548198 1.0562193
1.1062813 1.1154755 1.0855361 1.0477408 1.1067427 1.0369734 1.0823029 1.1079359
1.0538685 1.0248489 1.0885634 1.17388 1.1517662 1.093623 1.0690297 1.1065626
1.0857463 1.2213045 1.128457 1.1241734 1.0170703 1.1293286 1.1041583 1.044915
1.1902349 1.0723743 1.035083 1.1251746 1.1864018 1.0860994 1.0329257 1.1020865
1.2010626 1.051768 1.1266099 1.1030519 1.0664748 1.0463573 1.0798388 1.0134788
1.0650198 1.0351632 1.050903 1.115895 1.0625894 1.147331 1.1064364 1.1037792
1.053181 1.1092062 1.0143452 1.0189387 1.0053717 1.1112789 1.1030742 1.0972147
1.0723122 1.1650566 1.0886856 1.0506916 1.2502067 1.1746101 1.1153793 1.0887734
1.3092952 1.042669 1.0658737 1.3402833 1.0395298 1.2026209 1.0714359 1.0205282
1.2466568 1.0892386 1.0709459 1.1704222 1.065429 1.0178717 1.0847564 1.1516298
1.0437223 1.1103764 1.0411392 1.1371155 1.1929632 1.1182004 1.0895189 1.067882
1.0425687 1.1121811 1.2086233 1.0403695 1.0577172 1.0777773 1.0760785 1.0526359
1.0242699 1.1044432 1.0329245 1.1476816 1.1136048 1.0957297 1.0685201 1.1975086
1.0733423 1.0504338 1.0215583 1.0539492 1.0576713 1.0695266 1.0172439 1.1127542
1.0756875 1.1993364 1.101604 1.1442617 1.0845991 1.0705183 1.1056746 1.108329
1.0484904 1.0373275 1.0515206 1.1010944 1.0700243 1.0377696 1.1054709 1.0471996
1.041556 1.1121718 1.0826132 1.0965585 1.0225902 1.1362351 1.1364897 1.1129714
1.0500273 1.0203563 1.1280688 1.1481196 1.0755391 1.0267537 1.0698223 1.0488093
1.0656708 1.0449382 1.1110454 1.2581114 1.0095776 1.0747545 1.0507594 1.0807182
1.0202885 1.0629252 1.0949719 1.0279311 1.0338573 1.1762947 1.0877784 1.1297957
1.0808827 1.1550206 1.1380912 1.0670103 1.1095656 1.2476324 1.0373981 1.086991
1.2136216 1.0934329 1.0839452 1.1512718 1.1228793 1.0683445 1.0961684 1.0894345
1.0774506 1.0606192 1.0658388 1.1178167 1.1149933 1.1188118 1.1365088 1.0645072
00000000: dc16 8d3f e7d8 873f 8db1 863f 32c3 8d3f
00000010: 24dd 8c3f fe88 873f f3e8 823f 443d 823f
00000020: 3a44 823f 238b 913f 0cb2 843f 7cd3 903f
00000030: 6584 963f 443f 9d3f e1b6 933f 48de 863f
00000040: 13a3 853f 693a a53f 288a 853f 1b73 853f
00000050: 8790 983f 9cbb 943f 6f55 963f 7ece 833f
00000060: cac9 9e3f c83c 9a3f abab 873f f59c 883f
00000070: c431 993f fb39 893f 7d68 8c3f 9a79 8a3f
00000080: 3740 943f f415 8f3f 1fb9 923f 2560 8e3f
00000090: a23a 833f 70ca 883f ecf0 893f b7b8 893f
000000a0: e81b 883f 2e9f 8c3f bc73 883f fb61 8d3f
000000b0: 8c09 833f f8fe 873f b7b5 913f 9b69 8d3f
000000c0: 80a5 913f 940e 843f 938b 8a3f d6bf 853f
000000d0: f8fe 823f 27aa 813f 461d 933f 3481 8e3f
000000e0: 5da9 8f3f c81b 863f 1163 883f e4df 833f
000000f0: 0997 8a3f bd7f 8a3f ca75 8b3f ec21 833f
00000100: 426e 913f a0d9 893f 8947 803f 00a2 8e3f
00000110: 6f2b 8a3f 7493 933f 23d1 933f 3232 873f
00000120: a09a 8d3f e7c7 8e3f d9f2 8a3f 5f1c 863f
00000130: bfa9 8d3f 8bbb 843f e788 8a3f d8d0 8d3f
00000140: 2ae5 863f 402e 833f 0c56 8b3f b341 963f
00000150: 136d 933f d7fb 8b3f f7d5 883f d8a3 8d3f
00000160: bcf9 8a3f b553 9c3f 4771 903f eae4 8f3f
00000170: 5c2f 823f d78d 903f 0f55 8d3f c6bf 853f
00000180: 9e59 983f 9043 893f 9a7d 843f b905 903f
00000190: 04dc 973f 4e05 8b3f e936 843f 2c11 8d3f
000001a0: 6bbc 993f 55a0 863f c134 903f ce30 8d3f
000001b0: 3f82 883f 09ef 853f 2838 8a3f acb9 813f
000001c0: 9252 883f 3a80 843f fd83 863f a6d5 8e3f
000001d0: ee02 883f bedb 923f b59f 8d3f a348 8d3f
000001e0: a3ce 863f 78fa 8d3f 10d6 813f 956c 823f
000001f0: 05b0 803f 633e 8e3f 8931 8d3f 8871 8c3f
00000200: 8741 893f 9320 953f 0d5a 8b3f 107d 863f
00000210: c606 a03f a059 963f c0c4 8e3f ed5c 8b3f
00000220: fc96 a73f 2e76 853f 8d6e 883f 678e ab3f
00000230: 500f 853f 7bef 993f d024 893f aba0 823f
00000240: 7392 9f3f 2c6c 8b3f c114 893f 65d0 953f
00000250: fa5f 883f 9f49 823f 4cd9 8a3f 9b68 933f
00000260: b198 853f d020 8e3f 0d44 853f 008d 913f
00000270: 05b3 983f 3121 8f3f 5b75 8b3f 5bb0 883f
00000280: e472 853f f35b 8e3f 2bb4 9a3f d42a 853f
00000290: 4763 873f 9bf4 893f f1bc 893f c6bc 863f
000002a0: 471b 833f 655e 8d3f df36 843f 3be7 923f
000002b0: 9a8a 8e3f df40 8c3f 44c5 883f f647 993f
000002c0: 4863 893f 9d74 863f 6cc2 823f cfe7 863f
000002d0: c661 873f 3fe6 883f 0c35 823f bb6e 8e3f
000002e0: 21b0 893f db83 993f 5c01 8d3f 2b77 923f
000002f0: 25d4 8a3f be06 893f bf86 8d3f badd 8d3f
00000300: ef34 863f 26c7 843f 3a98 863f a9f0 8c3f
00000310: 8ef6 883f a2d5 843f 1280 8d3f a30a 863f
00000320: b551 853f a55b 8e3f 1293 8a3f 075c 8c3f
00000330: 3ce4 823f 2770 913f 7f78 913f d975 8e3f
00000340: 4b67 863f 099b 823f 8f64 903f 95f5 923f
00000350: 44ab 893f aa6c 833f f0ef 883f 623f 863f
00000360: e767 883f 89c0 853f bc36 8e3f cb09 a13f
00000370: d739 813f 8e91 893f 497f 863f f954 8a3f
00000380: d098 823f ef0d 883f 0a28 8c3f 3f93 833f
00000390: 7055 843f d390 963f 533c 8b3f 259d 903f
000003a0: 5d5a 8a3f b7d7 933f f9ac 913f cb93 883f
000003b0: 3f06 8e3f 6bb2 9f3f 76c9 843f 8522 8b3f
000003c0: f457 9b3f 9cf5 8b3f b7be 8a3f e05c 933f
000003d0: 82ba 8f3f 83bf 883f 3f4f 8c3f 9772 8b3f
000003e0: e7e9 893f 5fc2 873f 686d 883f 9e14 8f3f
000003f0: 1ab8 8e3f 3a35 8f3f 1f79 913f c641 883f

ln2.bias f4 [256]
0.08626636 -0.022174751 0.0017625974 -0.0018717413 0.09314229 0.005857443 -0.009534423 0.0005765044
-0.0028945445 0.09273327 0.0013559548 0.0853081 0.104237325 0.103217825 0.038679466 -0.004849357
-0.0028654367 0.105477795 0.0003013992 0.0017693238 0.09533528 0.09604572 0.039655775 -0.012997659
0.011078428 0.041758858 -0.00021809783 0.016080888 0.109042116 0.061664727 0.02552555 -0.004112375
-0.016117226 0.00317425 0.01603449 0.020231465 -0.0011576632 0.008563021 0.02198378 0.037991382
-0.02938007 0.0020108833 0.014268622 0.08459909 -0.013253022 0.00676026 0.048295975 0.043005414
0.09847288 0.0031003894 0.00959095 0.030478496 0.0072501185 0.015071455 -0.0032193845 0.0793285
-0.0024337536 0.023263207 -0.008811131 -0.0037849615 0.014552094 0.0019193524 0.09041142 -0.00872259
0.09843364 0.00087280845 -0.021199081 0.080591395 0.08235312 0.07930284 0.0045086243 -0.016380146
0.07982798 0.08156153 0.0174206 -0.03107831 0.08112846 0.012517735 0.027260339 0.09017992
0.0786294 0.006982692 0.022144932 0.093109615 -0.0064807613 0.08235391 0.0037441896 0.011670994
0.08299044 0.018951677 -0.0050558373 0.003226059 0.008764962 0.08956591 0.023860287 -0.0010049175
0.100102626 0.068254106 0.007924219 0.09282414 0.047821987 0.021440577 0.01954713 0.085188754
0.10567176 0.007294611 0.08734931 -0.0070847943 0.01378816 0.004120574 0.015874997 -0.011598744
0.00045802374 -0.0014157568 -0.0043929033 0.016748864 -0.010303491 0.08793694 0.013954195 0.017032102
-0.014615476 0.042304292 0.006582587 -0.007838444 0.00049772573 0.08748689 0.07834281 0.09450925
0.018640138 0.09679858 0.03183167 0.003907726 0.07861971 0.0134758195 0.08333769 0.09124592
0.110933356 0.007350997 0.060486726 0.120682694 0.012859207 0.105623856 0.022854323 0.016852366
0.105321564 0.010700393 0.08739321 0.035013776 -0.006771573 -0.0041541792 0.07838746 0.09172574
0.0076607056 0.024239779 0.013785195 0.03149353 0.09976684 0.008540595 0.024816832 0.019414112
0.00056455977 0.09964641 0.11003481 0.0004904807 0.011014627 0.013869292 0.028182874 0.0019397647
-0.0056184614 0.085379094 0.0022089868 0.09482621 0.025775779 0.013454212 0.00079384336 0.043802265
0.024680851 -0.012814043 0.0044457503 0.012977107 0.078986384 0.08979031 -0.010291208 0.10058003
0.000832436 0.10936782 0.018648138 0.020640755 0.08555327 0.07391779 0.08512009 0.09389085
0.012948303 0.011956478 -0.013482796 0.088609494 0.084343016 0.011935087 0.09380059 -0.008619246
0.022252742 0.012606891 0.07090555 0.083552696 0.005203009 0.09705286 -0.0053471536 0.031155953
0.016024455 -0.012842652 0.03537143 -0.00032697615 0.08428754 -0.010305036 0.014068679 -0.0061203893
0.09321603 0.02087143 -0.0028102887 0.104397975 -0.0051613064 0.008414924 0.005097831 0.07861696
0.005010985 0.004672665 0.023033474 0.0049247066 0.0008098141 0.015287658 0.029136932 0.09422055
0.07532571 0.017565958 0.100470655 0.0028259782 0.010411871 0.10069735 0.027585458 0.017335003
0.10414642 0.0830276 0.07859085 0.08645716 0.08987227 0.000632689 0.06966652 0.019727765
0.02508361 0.016788136 0.007151175 0.047408022 0.09136833 0.028851518 0.085451744 0.015162319
00000000: 6bac b03d d3a7 b5bc f406 e73a 3755 f5ba
00000010: 63c1 be3d cbef bf3b 4536 1cbc 8e20 173a
00000020: 66b2 3dbb f1ea bd3d 4bba b13a 03b6 ae3d
00000030: 617a d53d de63 d33d 5c6e 1e3d 5be7 9ebb
00000040: 0dca 3bbb be04 d83d 1e05 9e39 a8e8 e73a
00000050: 253f c33d 9eb3 c43d 186e 223d 22f4 54bc
00000060: 4b82 353c 560b 2b3d 31b1 64b9 11bc 833c
00000070: 7951 df3d 2794 7c3d f51a d13c 1ac1 86bb
00000080: 4608 84bc 1407 503b c35a 833c 75bc a53c
00000090: bbbc 97ba ea4b 0c3c 5417 b43c da9c 1b3d
000000a0: 79ae f0bc 06c9 033b f0c6 693c 4a42 ad3d
000000b0: 3423 59bc 2c85 dd3b 00d2 453d 7226 303d
000000c0: 26ac c93d e72f 4b3b 5c23 1d3c 0aae f93c
000000d0: 6792 ed3b 44ee 763c 4ffc 52bb fb76 a23d
000000e0: 9c7f 1fbb 7b92 be3c 905c 10bc 1e0d 78bb
000000f0: e86b 6e3c c892 fb3a 9f29 b93d 32e9 0ebc
00000100: 9497 c93d 2fcd 643a b2a9 adbc 1a0d a53d
00000110: c1a8 a83d 8769 a23d 15bd 933b a82f 86bc
00000120: da7c a33d bb09 a73d a5b5 8e3c f197 febc
00000130: ae26 a63d 3017 4d3c 1351 df3c 40b0 b83d
00000140: 7308 a13d 11cf e43b 4a69 b53c 41b0 be3d
00000150: 915c d4bb 2ba9 a83d 1461 753b b237 3f3c
00000160: e4f6 a93d 8c40 9b3c 70ab a5bb 4a6c 533b
00000170: ea9a 0f3c 556e b73d a676 c33c 70b7 83ba
00000180: 9b02 cd3d cfc8 8b3d 95d4 013c 951a be3d
00000190: fde0 433d 26a4 af3c 4e21 a03c 7177 ae3d
000001a0: 706a d83d a207 ef3b 32e4 b23d 9027 e8bb
000001b0: bce7 613c e105 873b 480c 823c a908 3ebc
000001c0: e822 f039 ea90 b9ba 58f2 8fbb ea34 893c
000001d0: f9cf 28bc 4818 b43d 23a0 643c e886 8b3c
000001e0: c075 6fbc 4447 2d3d beb2 d73b d16c 00bc
000001f0: cf79 023a 542c b33d 3272 a03d 118e c13d
00000200: 34b3 983c 553e c63d ed61 023d 620c 803b
00000210: 5f03 a13d afc9 5c3c f3ac aa3d 24df ba3d
00000220: 0731 e33d a2e0 f03b eec0 773d 7d28 f73d
00000230: 6caf 523c 5251 d83d fd38 bb3c f90d 8a3c
00000240: d5b2 d73d b350 2f3c 36fb b23d 9b6a 0f3d
00000250: 12e4 ddbb c81f 88bb 9b89 a03d b4da bb3d
00000260: a806 fb3b 8092 c63c 4cdb 613c 5cff 003d
00000270: 8f52 cc3d daed 0b3c ab4c cb3c 580a 9f3c
00000280: f7fe 133a 6b13 cc3d ee59 e13d 9a93 003a
00000290: b276 343c 073c 633c c5df e63c b43f fe3a
000002a0: 121b b8bb 3cdb ae3d a6c4 103b 3e34 c23d
000002b0: ba27 d33c 0e6f 5c3c ed19 503a 016a 333d
000002c0: 7f2f ca3c fef1 51bc a8ad 913b ef9d 543c
000002d0: 9dc3 a13d fbe3 b73d 749c 28bc e7fc cd3d
000002e0: d637 5a3a 3cfc df3d fbc3 983c cd16 a93c
000002f0: 8e36 af3d 3662 973d 7153 ae3d d949 c03d
00000300: 1e25 543c 1ae5 433c f2e6 5cbc e578 b53d
00000310: 08bc ac3d 628b 433c 861a c03d bd37 0dbc
00000320: 624b b63c 228d 4e3c ee36 913d ad1d ab3d
00000330: 017e aa3b a6c3 c63d 2d37 afbb c53a ff3c
00000340: b845 833c fd69 52bc a2e1 103d ff6d abb9
00000350: f29e ac3d 74d6 28bc 5180 663c 8c8d c8bb
00000360: 0ce8 be3d 90fa aa3c d22c 38bb 9bce d53d
00000370: 2d20 a9bb c0de 093c b50b a73b ee01 a13d
00000380: 3033 a43b 281d 993b b2b0 bc3c 6f5f a13b
00000390: b449 543a 1679 7a3c 93b0 ee3c b4f6 c03d
000003a0: 5e44 9a3d 7ce6 8f3c 8fc3 cd3d 0c34 393b
000003b0: 8d96 2a3c 6a3a ce3d e6fa e13c 2302 8e3c
000003c0: b84a d53d 600a aa3d 3df4 a03d 7410 b13d
000003d0: f40e b83d 0adb 253a 52ad 8e3d 1f9c a13c
000003e0: 257c cd3c 4687 893c 6754 ea3b ea2e 423d
000003f0: 521f bb3d 055a ec3c 5301 af3d 606b 783c
